<?xml version="1.0"?>
<net name="Model0" version="11">
	<layers>
		<layer id="1" name="input_ids" type="Parameter" version="opset1">
			<data shape="?,?" element_type="i64" />
			<output>
				<port id="0" precision="I64" names="input_ids">
					<dim>-1</dim>
					<dim>-1</dim>
				</port>
			</output>
		</layer>
		<layer id="0" name="attention_mask" type="Parameter" version="opset1">
			<data shape="?,?" element_type="i64" />
			<output>
				<port id="0" precision="I64" names="attention_mask">
					<dim>-1</dim>
					<dim>-1</dim>
				</port>
			</output>
		</layer>
		<layer id="2" name="Constant_9293" type="Const" version="opset1">
			<data element_type="f32" shape="1, 1, 512" offset="0" size="2048" />
			<output>
				<port id="0" precision="FP32">
					<dim>1</dim>
					<dim>1</dim>
					<dim>512</dim>
				</port>
			</output>
		</layer>
		<layer id="3" name="self.embed_tokens.weight" type="Const" version="opset1">
			<data element_type="f32" shape="50364, 512" offset="2048" size="103145472" />
			<output>
				<port id="0" precision="FP32" names="self.embed_tokens.weight">
					<dim>50364</dim>
					<dim>512</dim>
				</port>
			</output>
		</layer>
		<layer id="4" name="prim::ListConstruct/Reshape" type="Const" version="opset1">
			<data element_type="i64" shape="1" offset="103147520" size="8" />
			<output>
				<port id="0" precision="I64">
					<dim>1</dim>
				</port>
			</output>
		</layer>
		<layer id="5" name="aten::size/ShapeOf" type="ShapeOf" version="opset3">
			<data output_type="i64" />
			<input>
				<port id="0" precision="I64">
					<dim>-1</dim>
					<dim>-1</dim>
				</port>
			</input>
			<output>
				<port id="1" precision="I64">
					<dim>2</dim>
				</port>
			</output>
		</layer>
		<layer id="6" name="22" type="Const" version="opset1">
			<data element_type="i64" shape="" offset="103147528" size="8" />
			<output>
				<port id="0" precision="I64" names="22" />
			</output>
		</layer>
		<layer id="7" name="aten::size/Constant" type="Const" version="opset1">
			<data element_type="i32" shape="" offset="103147536" size="4" />
			<output>
				<port id="0" precision="I32" />
			</output>
		</layer>
		<layer id="8" name="aten::size/Gather" type="Gather" version="opset8">
			<data batch_dims="0" />
			<input>
				<port id="0" precision="I64">
					<dim>2</dim>
				</port>
				<port id="1" precision="I64" />
				<port id="2" precision="I32" />
			</input>
			<output>
				<port id="3" precision="I64" names="23,25" />
			</output>
		</layer>
		<layer id="9" name="Constant_60713" type="Const" version="opset1">
			<data element_type="i64" shape="1" offset="103147520" size="8" />
			<output>
				<port id="0" precision="I64">
					<dim>1</dim>
				</port>
			</output>
		</layer>
		<layer id="10" name="prim::ListConstruct/Reshape_0" type="Reshape" version="opset1">
			<data special_zero="false" />
			<input>
				<port id="0" precision="I64" />
				<port id="1" precision="I64">
					<dim>1</dim>
				</port>
			</input>
			<output>
				<port id="2" precision="I64">
					<dim>1</dim>
				</port>
			</output>
		</layer>
		<layer id="11" name="prim::ListConstruct/Concat" type="Concat" version="opset1">
			<data axis="0" />
			<input>
				<port id="0" precision="I64">
					<dim>1</dim>
				</port>
				<port id="1" precision="I64">
					<dim>1</dim>
				</port>
			</input>
			<output>
				<port id="2" precision="I64" names="27">
					<dim>2</dim>
				</port>
			</output>
		</layer>
		<layer id="12" name="aten::view/Reshape" type="Reshape" version="opset1">
			<data special_zero="false" />
			<input>
				<port id="0" precision="I64">
					<dim>-1</dim>
					<dim>-1</dim>
				</port>
				<port id="1" precision="I64">
					<dim>2</dim>
				</port>
			</input>
			<output>
				<port id="2" precision="I64" names="28">
					<dim>-1</dim>
					<dim>-1</dim>
				</port>
			</output>
		</layer>
		<layer id="13" name="__module.embed_tokens/aten::embedding/Convert" type="Convert" version="opset1">
			<data destination_type="i32" />
			<input>
				<port id="0" precision="I64">
					<dim>-1</dim>
					<dim>-1</dim>
				</port>
			</input>
			<output>
				<port id="1" precision="I32">
					<dim>-1</dim>
					<dim>-1</dim>
				</port>
			</output>
		</layer>
		<layer id="14" name="__module.embed_tokens/aten::embedding/Constant" type="Const" version="opset1">
			<data element_type="i32" shape="" offset="103147536" size="4" />
			<output>
				<port id="0" precision="I32" />
			</output>
		</layer>
		<layer id="15" name="__module.embed_tokens/aten::embedding/Gather" type="Gather" version="opset8">
			<data batch_dims="0" />
			<input>
				<port id="0" precision="FP32">
					<dim>50364</dim>
					<dim>512</dim>
				</port>
				<port id="1" precision="I32">
					<dim>-1</dim>
					<dim>-1</dim>
				</port>
				<port id="2" precision="I32" />
			</input>
			<output>
				<port id="3" precision="FP32" names="110,120,71,hidden_states.3,input.1">
					<dim>-1</dim>
					<dim>-1</dim>
					<dim>512</dim>
				</port>
			</output>
		</layer>
		<layer id="16" name="Constant_9186" type="Const" version="opset1">
			<data element_type="f32" shape="1, 1, 512" offset="103147540" size="2048" />
			<output>
				<port id="0" precision="FP32">
					<dim>1</dim>
					<dim>1</dim>
					<dim>512</dim>
				</port>
			</output>
		</layer>
		<layer id="17" name="Constant_9185" type="Const" version="opset1">
			<data element_type="f32" shape="1, 1, 1" offset="103149588" size="4" />
			<output>
				<port id="0" precision="FP32">
					<dim>1</dim>
					<dim>1</dim>
					<dim>1</dim>
				</port>
			</output>
		</layer>
		<layer id="18" name="Constant_9183" type="Const" version="opset1">
			<data element_type="f32" shape="1, 1, 1" offset="103149592" size="4" />
			<output>
				<port id="0" precision="FP32">
					<dim>1</dim>
					<dim>1</dim>
					<dim>1</dim>
				</port>
			</output>
		</layer>
		<layer id="19" name="__module.block.0.layer.0.layer_norm/aten::pow/Power" type="Power" version="opset1">
			<data auto_broadcast="numpy" />
			<input>
				<port id="0" precision="FP32">
					<dim>-1</dim>
					<dim>-1</dim>
					<dim>512</dim>
				</port>
				<port id="1" precision="FP32">
					<dim>1</dim>
					<dim>1</dim>
					<dim>1</dim>
				</port>
			</input>
			<output>
				<port id="2" precision="FP32" names="111">
					<dim>-1</dim>
					<dim>-1</dim>
					<dim>512</dim>
				</port>
			</output>
		</layer>
		<layer id="20" name="Constant_142" type="Const" version="opset1">
			<data element_type="i64" shape="1" offset="103147520" size="8" />
			<output>
				<port id="0" precision="I64" names="112">
					<dim>1</dim>
				</port>
			</output>
		</layer>
		<layer id="21" name="__module.block.0.layer.0.layer_norm/aten::mean/ReduceMean" type="ReduceMean" version="opset1">
			<data keep_dims="true" />
			<input>
				<port id="0" precision="FP32">
					<dim>-1</dim>
					<dim>-1</dim>
					<dim>512</dim>
				</port>
				<port id="1" precision="I64">
					<dim>1</dim>
				</port>
			</input>
			<output>
				<port id="2" precision="FP32" names="113,variance.1">
					<dim>-1</dim>
					<dim>-1</dim>
					<dim>1</dim>
				</port>
			</output>
		</layer>
		<layer id="22" name="Constant_9184" type="Const" version="opset1">
			<data element_type="f32" shape="1, 1, 1" offset="103149596" size="4" />
			<output>
				<port id="0" precision="FP32">
					<dim>1</dim>
					<dim>1</dim>
					<dim>1</dim>
				</port>
			</output>
		</layer>
		<layer id="23" name="__module.block.0.layer.0.layer_norm/aten::add/Add" type="Add" version="opset1">
			<data auto_broadcast="numpy" />
			<input>
				<port id="0" precision="FP32">
					<dim>-1</dim>
					<dim>-1</dim>
					<dim>1</dim>
				</port>
				<port id="1" precision="FP32">
					<dim>1</dim>
					<dim>1</dim>
					<dim>1</dim>
				</port>
			</input>
			<output>
				<port id="2" precision="FP32" names="114">
					<dim>-1</dim>
					<dim>-1</dim>
					<dim>1</dim>
				</port>
			</output>
		</layer>
		<layer id="24" name="__module.block.0.layer.0.layer_norm/aten::rsqrt/Sqrt" type="Sqrt" version="opset1">
			<input>
				<port id="0" precision="FP32">
					<dim>-1</dim>
					<dim>-1</dim>
					<dim>1</dim>
				</port>
			</input>
			<output>
				<port id="1" precision="FP32">
					<dim>-1</dim>
					<dim>-1</dim>
					<dim>1</dim>
				</port>
			</output>
		</layer>
		<layer id="25" name="__module.block.0.layer.0.layer_norm/aten::rsqrt/Divide" type="Divide" version="opset1">
			<data auto_broadcast="numpy" m_pythondiv="true" />
			<input>
				<port id="0" precision="FP32">
					<dim>1</dim>
					<dim>1</dim>
					<dim>1</dim>
				</port>
				<port id="1" precision="FP32">
					<dim>-1</dim>
					<dim>-1</dim>
					<dim>1</dim>
				</port>
			</input>
			<output>
				<port id="2" precision="FP32" names="115">
					<dim>-1</dim>
					<dim>-1</dim>
					<dim>1</dim>
				</port>
			</output>
		</layer>
		<layer id="26" name="__module.block.0.layer.0.layer_norm/aten::mul/Multiply" type="Multiply" version="opset1">
			<data auto_broadcast="numpy" />
			<input>
				<port id="0" precision="FP32">
					<dim>-1</dim>
					<dim>-1</dim>
					<dim>512</dim>
				</port>
				<port id="1" precision="FP32">
					<dim>-1</dim>
					<dim>-1</dim>
					<dim>1</dim>
				</port>
			</input>
			<output>
				<port id="2" precision="FP32" names="116,hidden_states.5">
					<dim>-1</dim>
					<dim>-1</dim>
					<dim>512</dim>
				</port>
			</output>
		</layer>
		<layer id="27" name="__module.block.0.layer.0.layer_norm/aten::mul/Multiply_1" type="Multiply" version="opset1">
			<data auto_broadcast="numpy" />
			<input>
				<port id="0" precision="FP32">
					<dim>1</dim>
					<dim>1</dim>
					<dim>512</dim>
				</port>
				<port id="1" precision="FP32">
					<dim>-1</dim>
					<dim>-1</dim>
					<dim>512</dim>
				</port>
			</input>
			<output>
				<port id="2" precision="FP32" names="117,119,hidden_states.7">
					<dim>-1</dim>
					<dim>-1</dim>
					<dim>512</dim>
				</port>
			</output>
		</layer>
		<layer id="28" name="self.block.0.layer.0.SelfAttention.q.weight" type="Const" version="opset1">
			<data element_type="f32" shape="384, 512" offset="103149600" size="786432" />
			<output>
				<port id="0" precision="FP32" names="self.block.0.layer.0.SelfAttention.q.weight">
					<dim>384</dim>
					<dim>512</dim>
				</port>
			</output>
		</layer>
		<layer id="29" name="__module.block.0.layer.0.SelfAttention.q/aten::linear/MatMul" type="MatMul" version="opset1">
			<data transpose_a="false" transpose_b="true" />
			<input>
				<port id="0" precision="FP32">
					<dim>-1</dim>
					<dim>-1</dim>
					<dim>512</dim>
				</port>
				<port id="1" precision="FP32">
					<dim>384</dim>
					<dim>512</dim>
				</port>
			</input>
			<output>
				<port id="2" precision="FP32" names="129,states.1">
					<dim>-1</dim>
					<dim>-1</dim>
					<dim>384</dim>
				</port>
			</output>
		</layer>
		<layer id="30" name="__module.block.0.layer.0.SelfAttention/aten::size/ShapeOf" type="ShapeOf" version="opset3">
			<data output_type="i64" />
			<input>
				<port id="0" precision="FP32">
					<dim>-1</dim>
					<dim>-1</dim>
					<dim>512</dim>
				</port>
			</input>
			<output>
				<port id="1" precision="I64">
					<dim>3</dim>
				</port>
			</output>
		</layer>
		<layer id="31" name="Constant_8615" type="Const" version="opset1">
			<data element_type="i64" shape="1" offset="103936032" size="8" />
			<output>
				<port id="0" precision="I64">
					<dim>1</dim>
				</port>
			</output>
		</layer>
		<layer id="32" name="__module.block.0.layer.0.SelfAttention/aten::size/Constant" type="Const" version="opset1">
			<data element_type="i32" shape="" offset="103147536" size="4" />
			<output>
				<port id="0" precision="I32" />
			</output>
		</layer>
		<layer id="33" name="__module.block.0.layer.0.SelfAttention/aten::size/Gather" type="Gather" version="opset8">
			<data batch_dims="0" />
			<input>
				<port id="0" precision="I64">
					<dim>3</dim>
				</port>
				<port id="1" precision="I64">
					<dim>1</dim>
				</port>
				<port id="2" precision="I32" />
			</input>
			<output>
				<port id="3" precision="I64" names="126">
					<dim>1</dim>
				</port>
			</output>
		</layer>
		<layer id="34" name="__module.block.0.layer.0.SelfAttention/prim::ListConstruct/Reshape_0" type="Const" version="opset1">
			<data element_type="i64" shape="1" offset="103147520" size="8" />
			<output>
				<port id="0" precision="I64">
					<dim>1</dim>
				</port>
			</output>
		</layer>
		<layer id="35" name="__module.block.0.layer.0.SelfAttention/prim::ListConstruct/Reshape_1" type="Const" version="opset1">
			<data element_type="i64" shape="1" offset="103936040" size="8" />
			<output>
				<port id="0" precision="I64">
					<dim>1</dim>
				</port>
			</output>
		</layer>
		<layer id="36" name="__module.block.0.layer.0.SelfAttention/prim::ListConstruct/Reshape_2" type="Const" version="opset1">
			<data element_type="i64" shape="1" offset="103936048" size="8" />
			<output>
				<port id="0" precision="I64">
					<dim>1</dim>
				</port>
			</output>
		</layer>
		<layer id="37" name="__module.block.0.layer.0.SelfAttention/prim::ListConstruct/Concat" type="Concat" version="opset1">
			<data axis="0" />
			<input>
				<port id="0" precision="I64">
					<dim>1</dim>
				</port>
				<port id="1" precision="I64">
					<dim>1</dim>
				</port>
				<port id="2" precision="I64">
					<dim>1</dim>
				</port>
				<port id="3" precision="I64">
					<dim>1</dim>
				</port>
			</input>
			<output>
				<port id="4" precision="I64" names="130,135,140">
					<dim>4</dim>
				</port>
			</output>
		</layer>
		<layer id="38" name="__module.block.0.layer.0.SelfAttention/aten::view/Reshape" type="Reshape" version="opset1">
			<data special_zero="false" />
			<input>
				<port id="0" precision="FP32">
					<dim>-1</dim>
					<dim>-1</dim>
					<dim>384</dim>
				</port>
				<port id="1" precision="I64">
					<dim>4</dim>
				</port>
			</input>
			<output>
				<port id="2" precision="FP32" names="131">
					<dim>-1</dim>
					<dim>-1</dim>
					<dim>6</dim>
					<dim>64</dim>
				</port>
			</output>
		</layer>
		<layer id="39" name="__module.block.0.layer.0.SelfAttention/aten::transpose/ScatterElementsUpdate" type="Const" version="opset1">
			<data element_type="i32" shape="4" offset="103936056" size="16" />
			<output>
				<port id="0" precision="I32">
					<dim>4</dim>
				</port>
			</output>
		</layer>
		<layer id="40" name="__module.block.0.layer.0.SelfAttention/aten::transpose/Transpose" type="Transpose" version="opset1">
			<input>
				<port id="0" precision="FP32">
					<dim>-1</dim>
					<dim>-1</dim>
					<dim>6</dim>
					<dim>64</dim>
				</port>
				<port id="1" precision="I32">
					<dim>4</dim>
				</port>
			</input>
			<output>
				<port id="2" precision="FP32" names="132">
					<dim>-1</dim>
					<dim>6</dim>
					<dim>-1</dim>
					<dim>64</dim>
				</port>
			</output>
		</layer>
		<layer id="41" name="self.block.0.layer.0.SelfAttention.k.weight" type="Const" version="opset1">
			<data element_type="f32" shape="384, 512" offset="103936072" size="786432" />
			<output>
				<port id="0" precision="FP32" names="self.block.0.layer.0.SelfAttention.k.weight">
					<dim>384</dim>
					<dim>512</dim>
				</port>
			</output>
		</layer>
		<layer id="42" name="__module.block.0.layer.0.SelfAttention.k/aten::linear/MatMul" type="MatMul" version="opset1">
			<data transpose_a="false" transpose_b="true" />
			<input>
				<port id="0" precision="FP32">
					<dim>-1</dim>
					<dim>-1</dim>
					<dim>512</dim>
				</port>
				<port id="1" precision="FP32">
					<dim>384</dim>
					<dim>512</dim>
				</port>
			</input>
			<output>
				<port id="2" precision="FP32" names="134,states.3">
					<dim>-1</dim>
					<dim>-1</dim>
					<dim>384</dim>
				</port>
			</output>
		</layer>
		<layer id="43" name="__module.block.0.layer.0.SelfAttention/aten::view/Reshape_1" type="Reshape" version="opset1">
			<data special_zero="false" />
			<input>
				<port id="0" precision="FP32">
					<dim>-1</dim>
					<dim>-1</dim>
					<dim>384</dim>
				</port>
				<port id="1" precision="I64">
					<dim>4</dim>
				</port>
			</input>
			<output>
				<port id="2" precision="FP32" names="136">
					<dim>-1</dim>
					<dim>-1</dim>
					<dim>6</dim>
					<dim>64</dim>
				</port>
			</output>
		</layer>
		<layer id="44" name="Constant_8686" type="Const" version="opset1">
			<data element_type="i32" shape="4" offset="104722504" size="16" />
			<output>
				<port id="0" precision="I32">
					<dim>4</dim>
				</port>
			</output>
		</layer>
		<layer id="45" name="__module.block.0.layer.0.SelfAttention/aten::transpose/Transpose_2" type="Transpose" version="opset1">
			<input>
				<port id="0" precision="FP32">
					<dim>-1</dim>
					<dim>-1</dim>
					<dim>6</dim>
					<dim>64</dim>
				</port>
				<port id="1" precision="I32">
					<dim>4</dim>
				</port>
			</input>
			<output>
				<port id="2" precision="FP32" names="143">
					<dim>-1</dim>
					<dim>6</dim>
					<dim>64</dim>
					<dim>-1</dim>
				</port>
			</output>
		</layer>
		<layer id="46" name="__module.block.0.layer.0.SelfAttention/aten::matmul/MatMul" type="MatMul" version="opset1">
			<data transpose_a="false" transpose_b="false" />
			<input>
				<port id="0" precision="FP32">
					<dim>-1</dim>
					<dim>6</dim>
					<dim>-1</dim>
					<dim>64</dim>
				</port>
				<port id="1" precision="FP32">
					<dim>-1</dim>
					<dim>6</dim>
					<dim>64</dim>
					<dim>-1</dim>
				</port>
			</input>
			<output>
				<port id="2" precision="FP32" names="144_1">
					<dim>-1</dim>
					<dim>6</dim>
					<dim>-1</dim>
					<dim>-1</dim>
				</port>
			</output>
		</layer>
		<layer id="47" name="self.block.0.layer.0.SelfAttention.relative_attention_bias.weight" type="Const" version="opset1">
			<data element_type="f32" shape="32, 6" offset="104722520" size="768" />
			<output>
				<port id="0" precision="FP32" names="self.block.0.layer.0.SelfAttention.relative_attention_bias.weight">
					<dim>32</dim>
					<dim>6</dim>
				</port>
			</output>
		</layer>
		<layer id="48" name="__module.block.0.layer.0.SelfAttention/aten::arange/Constant_2" type="Const" version="opset1">
			<data element_type="i32" shape="" offset="103147536" size="4" />
			<output>
				<port id="0" precision="I32" />
			</output>
		</layer>
		<layer id="49" name="80" type="Const" version="opset1">
			<data element_type="i64" shape="" offset="103147528" size="8" />
			<output>
				<port id="0" precision="I64" names="80" />
			</output>
		</layer>
		<layer id="50" name="__module.block.0.layer.0.SelfAttention/aten::size/Constant_1" type="Const" version="opset1">
			<data element_type="i32" shape="" offset="103147536" size="4" />
			<output>
				<port id="0" precision="I32" />
			</output>
		</layer>
		<layer id="51" name="__module.block.0.layer.0.SelfAttention/aten::size/Gather_1" type="Gather" version="opset8">
			<data batch_dims="0" />
			<input>
				<port id="0" precision="I64">
					<dim>3</dim>
				</port>
				<port id="1" precision="I64" />
				<port id="2" precision="I32" />
			</input>
			<output>
				<port id="3" precision="I64" names="127" />
			</output>
		</layer>
		<layer id="52" name="__module.block.0.layer.0.SelfAttention/aten::arange/Constant_3" type="Const" version="opset1">
			<data element_type="i32" shape="" offset="104723288" size="4" />
			<output>
				<port id="0" precision="I32" />
			</output>
		</layer>
		<layer id="53" name="__module.block.0.layer.0.SelfAttention/aten::arange/Range_1" type="Range" version="opset4">
			<data output_type="i64" />
			<input>
				<port id="0" precision="I32" />
				<port id="1" precision="I64" />
				<port id="2" precision="I32" />
			</input>
			<output>
				<port id="3" precision="I64" names="145,146,148">
					<dim>-1</dim>
				</port>
			</output>
		</layer>
		<layer id="54" name="101" type="Const" version="opset1">
			<data element_type="i64" shape="" offset="103936032" size="8" />
			<output>
				<port id="0" precision="I64" names="101" />
			</output>
		</layer>
		<layer id="55" name="__module.block.0.layer.0.SelfAttention/aten::unsqueeze/Unsqueeze" type="Unsqueeze" version="opset1">
			<input>
				<port id="0" precision="I64">
					<dim>-1</dim>
				</port>
				<port id="1" precision="I64" />
			</input>
			<output>
				<port id="2" precision="I64" names="149,150,memory_position">
					<dim>1</dim>
					<dim>-1</dim>
				</port>
			</output>
		</layer>
		<layer id="56" name="__module.block.0.layer.0.SelfAttention/aten::unsqueeze/Unsqueeze_1" type="Unsqueeze" version="opset1">
			<input>
				<port id="0" precision="I64">
					<dim>-1</dim>
				</port>
				<port id="1" precision="I64" />
			</input>
			<output>
				<port id="2" precision="I64" names="147,context_position">
					<dim>-1</dim>
					<dim>1</dim>
				</port>
			</output>
		</layer>
		<layer id="57" name="__module.block.0.layer.0.SelfAttention/aten::sub/Subtract" type="Subtract" version="opset1">
			<data auto_broadcast="numpy" />
			<input>
				<port id="0" precision="I64">
					<dim>1</dim>
					<dim>-1</dim>
				</port>
				<port id="1" precision="I64">
					<dim>-1</dim>
					<dim>1</dim>
				</port>
			</input>
			<output>
				<port id="2" precision="I64" names="151,relative_position.1">
					<dim>-1</dim>
					<dim>-1</dim>
				</port>
			</output>
		</layer>
		<layer id="58" name="Constant_9187" type="Const" version="opset1">
			<data element_type="i64" shape="1, 1" offset="103936032" size="8" />
			<output>
				<port id="0" precision="I64">
					<dim>1</dim>
					<dim>1</dim>
				</port>
			</output>
		</layer>
		<layer id="59" name="__module.block.0.layer.0.SelfAttention/aten::gt/Greater" type="Greater" version="opset1">
			<data auto_broadcast="numpy" />
			<input>
				<port id="0" precision="I64">
					<dim>-1</dim>
					<dim>-1</dim>
				</port>
				<port id="1" precision="I64">
					<dim>1</dim>
					<dim>1</dim>
				</port>
			</input>
			<output>
				<port id="2" precision="BOOL" names="152">
					<dim>-1</dim>
					<dim>-1</dim>
				</port>
			</output>
		</layer>
		<layer id="60" name="__module.block.0.layer.0.SelfAttention/aten::to/Convert" type="Convert" version="opset1">
			<data destination_type="i64" />
			<input>
				<port id="0" precision="BOOL">
					<dim>-1</dim>
					<dim>-1</dim>
				</port>
			</input>
			<output>
				<port id="1" precision="I64" names="153">
					<dim>-1</dim>
					<dim>-1</dim>
				</port>
			</output>
		</layer>
		<layer id="61" name="Constant_9188" type="Const" version="opset1">
			<data element_type="i64" shape="1, 1" offset="104723292" size="8" />
			<output>
				<port id="0" precision="I64">
					<dim>1</dim>
					<dim>1</dim>
				</port>
			</output>
		</layer>
		<layer id="62" name="__module.block.0.layer.0.SelfAttention/aten::mul/Multiply" type="Multiply" version="opset1">
			<data auto_broadcast="numpy" />
			<input>
				<port id="0" precision="I64">
					<dim>-1</dim>
					<dim>-1</dim>
				</port>
				<port id="1" precision="I64">
					<dim>1</dim>
					<dim>1</dim>
				</port>
			</input>
			<output>
				<port id="2" precision="I64" names="154,155_1">
					<dim>-1</dim>
					<dim>-1</dim>
				</port>
			</output>
		</layer>
		<layer id="63" name="__module.block.0.layer.0.SelfAttention/aten::abs/Abs" type="Abs" version="opset1">
			<input>
				<port id="0" precision="I64">
					<dim>-1</dim>
					<dim>-1</dim>
				</port>
			</input>
			<output>
				<port id="1" precision="I64" names="156,relative_position">
					<dim>-1</dim>
					<dim>-1</dim>
				</port>
			</output>
		</layer>
		<layer id="64" name="Constant_9189" type="Const" version="opset1">
			<data element_type="i64" shape="1, 1" offset="104723300" size="8" />
			<output>
				<port id="0" precision="I64">
					<dim>1</dim>
					<dim>1</dim>
				</port>
			</output>
		</layer>
		<layer id="65" name="__module.block.0.layer.0.SelfAttention/aten::lt/Less" type="Less" version="opset1">
			<data auto_broadcast="numpy" />
			<input>
				<port id="0" precision="I64">
					<dim>-1</dim>
					<dim>-1</dim>
				</port>
				<port id="1" precision="I64">
					<dim>1</dim>
					<dim>1</dim>
				</port>
			</input>
			<output>
				<port id="2" precision="BOOL" names="157">
					<dim>-1</dim>
					<dim>-1</dim>
				</port>
			</output>
		</layer>
		<layer id="66" name="__module.block.0.layer.0.SelfAttention/aten::to/Convert_1" type="Convert" version="opset1">
			<data destination_type="f32" />
			<input>
				<port id="0" precision="I64">
					<dim>-1</dim>
					<dim>-1</dim>
				</port>
			</input>
			<output>
				<port id="1" precision="FP32" names="158">
					<dim>-1</dim>
					<dim>-1</dim>
				</port>
			</output>
		</layer>
		<layer id="67" name="Constant_9190" type="Const" version="opset1">
			<data element_type="f32" shape="1, 1" offset="104723308" size="4" />
			<output>
				<port id="0" precision="FP32">
					<dim>1</dim>
					<dim>1</dim>
				</port>
			</output>
		</layer>
		<layer id="68" name="__module.block.0.layer.0.SelfAttention/aten::div/Divide" type="Divide" version="opset1">
			<data auto_broadcast="numpy" m_pythondiv="true" />
			<input>
				<port id="0" precision="FP32">
					<dim>-1</dim>
					<dim>-1</dim>
				</port>
				<port id="1" precision="FP32">
					<dim>1</dim>
					<dim>1</dim>
				</port>
			</input>
			<output>
				<port id="2" precision="FP32" names="159">
					<dim>-1</dim>
					<dim>-1</dim>
				</port>
			</output>
		</layer>
		<layer id="69" name="__module.block.0.layer.0.SelfAttention/aten::log/Log" type="Log" version="opset1">
			<input>
				<port id="0" precision="FP32">
					<dim>-1</dim>
					<dim>-1</dim>
				</port>
			</input>
			<output>
				<port id="1" precision="FP32" names="160">
					<dim>-1</dim>
					<dim>-1</dim>
				</port>
			</output>
		</layer>
		<layer id="70" name="Constant_9191" type="Const" version="opset1">
			<data element_type="f32" shape="1, 1" offset="104723312" size="4" />
			<output>
				<port id="0" precision="FP32">
					<dim>1</dim>
					<dim>1</dim>
				</port>
			</output>
		</layer>
		<layer id="71" name="__module.block.0.layer.0.SelfAttention/aten::div/Divide_1" type="Divide" version="opset1">
			<data auto_broadcast="numpy" m_pythondiv="true" />
			<input>
				<port id="0" precision="FP32">
					<dim>-1</dim>
					<dim>-1</dim>
				</port>
				<port id="1" precision="FP32">
					<dim>1</dim>
					<dim>1</dim>
				</port>
			</input>
			<output>
				<port id="2" precision="FP32" names="161">
					<dim>-1</dim>
					<dim>-1</dim>
				</port>
			</output>
		</layer>
		<layer id="72" name="Constant_9192" type="Const" version="opset1">
			<data element_type="f32" shape="1, 1" offset="104723308" size="4" />
			<output>
				<port id="0" precision="FP32">
					<dim>1</dim>
					<dim>1</dim>
				</port>
			</output>
		</layer>
		<layer id="73" name="__module.block.0.layer.0.SelfAttention/aten::mul/Multiply_1" type="Multiply" version="opset1">
			<data auto_broadcast="numpy" />
			<input>
				<port id="0" precision="FP32">
					<dim>-1</dim>
					<dim>-1</dim>
				</port>
				<port id="1" precision="FP32">
					<dim>1</dim>
					<dim>1</dim>
				</port>
			</input>
			<output>
				<port id="2" precision="FP32" names="162">
					<dim>-1</dim>
					<dim>-1</dim>
				</port>
			</output>
		</layer>
		<layer id="74" name="__module.block.0.layer.0.SelfAttention/aten::to/Convert_2" type="Convert" version="opset1">
			<data destination_type="i64" />
			<input>
				<port id="0" precision="FP32">
					<dim>-1</dim>
					<dim>-1</dim>
				</port>
			</input>
			<output>
				<port id="1" precision="I64" names="163">
					<dim>-1</dim>
					<dim>-1</dim>
				</port>
			</output>
		</layer>
		<layer id="75" name="Constant_9193" type="Const" version="opset1">
			<data element_type="i64" shape="1, 1" offset="104723300" size="8" />
			<output>
				<port id="0" precision="I64">
					<dim>1</dim>
					<dim>1</dim>
				</port>
			</output>
		</layer>
		<layer id="76" name="__module.block.0.layer.0.SelfAttention/aten::add/Add_1" type="Add" version="opset1">
			<data auto_broadcast="numpy" />
			<input>
				<port id="0" precision="I64">
					<dim>-1</dim>
					<dim>-1</dim>
				</port>
				<port id="1" precision="I64">
					<dim>1</dim>
					<dim>1</dim>
				</port>
			</input>
			<output>
				<port id="2" precision="I64" names="164">
					<dim>-1</dim>
					<dim>-1</dim>
				</port>
			</output>
		</layer>
		<layer id="77" name="Constant_9194" type="Const" version="opset1">
			<data element_type="i64" shape="1, 1" offset="104723316" size="8" />
			<output>
				<port id="0" precision="I64">
					<dim>1</dim>
					<dim>1</dim>
				</port>
			</output>
		</layer>
		<layer id="78" name="__module.block.0.layer.0.SelfAttention/aten::min/Minimum" type="Minimum" version="opset1">
			<data auto_broadcast="numpy" />
			<input>
				<port id="0" precision="I64">
					<dim>-1</dim>
					<dim>-1</dim>
				</port>
				<port id="1" precision="I64">
					<dim>1</dim>
					<dim>1</dim>
				</port>
			</input>
			<output>
				<port id="2" precision="I64" names="166">
					<dim>-1</dim>
					<dim>-1</dim>
				</port>
			</output>
		</layer>
		<layer id="79" name="__module.block.0.layer.0.SelfAttention/aten::where/Select" type="Select" version="opset1">
			<data auto_broadcast="numpy" />
			<input>
				<port id="0" precision="BOOL">
					<dim>-1</dim>
					<dim>-1</dim>
				</port>
				<port id="1" precision="I64">
					<dim>-1</dim>
					<dim>-1</dim>
				</port>
				<port id="2" precision="I64">
					<dim>-1</dim>
					<dim>-1</dim>
				</port>
			</input>
			<output>
				<port id="3" precision="I64" names="167">
					<dim>-1</dim>
					<dim>-1</dim>
				</port>
			</output>
		</layer>
		<layer id="80" name="__module.block.0.layer.0.SelfAttention/aten::add_/Add" type="Add" version="opset1">
			<data auto_broadcast="numpy" />
			<input>
				<port id="0" precision="I64">
					<dim>-1</dim>
					<dim>-1</dim>
				</port>
				<port id="1" precision="I64">
					<dim>-1</dim>
					<dim>-1</dim>
				</port>
			</input>
			<output>
				<port id="2" precision="I64" names="155,relative_buckets">
					<dim>-1</dim>
					<dim>-1</dim>
				</port>
			</output>
		</layer>
		<layer id="81" name="__module.block.0.layer.0.SelfAttention.relative_attention_bias/aten::embedding/Convert" type="Convert" version="opset1">
			<data destination_type="i32" />
			<input>
				<port id="0" precision="I64">
					<dim>-1</dim>
					<dim>-1</dim>
				</port>
			</input>
			<output>
				<port id="1" precision="I32">
					<dim>-1</dim>
					<dim>-1</dim>
				</port>
			</output>
		</layer>
		<layer id="82" name="__module.block.0.layer.0.SelfAttention.relative_attention_bias/aten::embedding/Constant" type="Const" version="opset1">
			<data element_type="i32" shape="" offset="103147536" size="4" />
			<output>
				<port id="0" precision="I32" />
			</output>
		</layer>
		<layer id="83" name="__module.block.0.layer.0.SelfAttention.relative_attention_bias/aten::embedding/Gather" type="Gather" version="opset8">
			<data batch_dims="0" />
			<input>
				<port id="0" precision="FP32">
					<dim>32</dim>
					<dim>6</dim>
				</port>
				<port id="1" precision="I32">
					<dim>-1</dim>
					<dim>-1</dim>
				</port>
				<port id="2" precision="I32" />
			</input>
			<output>
				<port id="3" precision="FP32" names="170,values">
					<dim>-1</dim>
					<dim>-1</dim>
					<dim>6</dim>
				</port>
			</output>
		</layer>
		<layer id="84" name="Constant_420" type="Const" version="opset1">
			<data element_type="i64" shape="3" offset="104723324" size="24" />
			<output>
				<port id="0" precision="I64" names="171">
					<dim>3</dim>
				</port>
			</output>
		</layer>
		<layer id="85" name="__module.block.0.layer.0.SelfAttention/aten::permute/Transpose" type="Transpose" version="opset1">
			<input>
				<port id="0" precision="FP32">
					<dim>-1</dim>
					<dim>-1</dim>
					<dim>6</dim>
				</port>
				<port id="1" precision="I64">
					<dim>3</dim>
				</port>
			</input>
			<output>
				<port id="2" precision="FP32" names="172">
					<dim>6</dim>
					<dim>-1</dim>
					<dim>-1</dim>
				</port>
			</output>
		</layer>
		<layer id="86" name="__module.block.0.layer.0.SelfAttention/aten::unsqueeze/Unsqueeze_2" type="Unsqueeze" version="opset1">
			<input>
				<port id="0" precision="FP32">
					<dim>6</dim>
					<dim>-1</dim>
					<dim>-1</dim>
				</port>
				<port id="1" precision="I64" />
			</input>
			<output>
				<port id="2" precision="FP32" names="173,position_bias.1">
					<dim>1</dim>
					<dim>6</dim>
					<dim>-1</dim>
					<dim>-1</dim>
				</port>
			</output>
		</layer>
		<layer id="87" name="Constant_9196" type="Const" version="opset1">
			<data element_type="f32" shape="1, 1, 1, 1" offset="103149588" size="4" />
			<output>
				<port id="0" precision="FP32">
					<dim>1</dim>
					<dim>1</dim>
					<dim>1</dim>
					<dim>1</dim>
				</port>
			</output>
		</layer>
		<layer id="88" name="35" type="Const" version="opset1">
			<data element_type="i64" shape="" offset="103147528" size="8" />
			<output>
				<port id="0" precision="I64" names="35" />
			</output>
		</layer>
		<layer id="89" name="aten::unsqueeze/Unsqueeze" type="Unsqueeze" version="opset1">
			<input>
				<port id="0" precision="I64">
					<dim>-1</dim>
					<dim>-1</dim>
				</port>
				<port id="1" precision="I64" />
			</input>
			<output>
				<port id="2" precision="I64" names="36">
					<dim>-1</dim>
					<dim>1</dim>
					<dim>-1</dim>
				</port>
			</output>
		</layer>
		<layer id="90" name="37" type="Const" version="opset1">
			<data element_type="i64" shape="" offset="104723348" size="8" />
			<output>
				<port id="0" precision="I64" names="37" />
			</output>
		</layer>
		<layer id="91" name="aten::unsqueeze/Unsqueeze_1" type="Unsqueeze" version="opset1">
			<input>
				<port id="0" precision="I64">
					<dim>-1</dim>
					<dim>1</dim>
					<dim>-1</dim>
				</port>
				<port id="1" precision="I64" />
			</input>
			<output>
				<port id="2" precision="I64" names="38,43,extended_attention_mask">
					<dim>-1</dim>
					<dim>1</dim>
					<dim>1</dim>
					<dim>-1</dim>
				</port>
			</output>
		</layer>
		<layer id="92" name="aten::to/Convert" type="Convert" version="opset1">
			<data destination_type="f32" />
			<input>
				<port id="0" precision="I64">
					<dim>-1</dim>
					<dim>1</dim>
					<dim>1</dim>
					<dim>-1</dim>
				</port>
			</input>
			<output>
				<port id="1" precision="FP32" names="48">
					<dim>-1</dim>
					<dim>1</dim>
					<dim>1</dim>
					<dim>-1</dim>
				</port>
			</output>
		</layer>
		<layer id="93" name="Constant_9195" type="Const" version="opset1">
			<data element_type="f32" shape="1, 1, 1, 1" offset="103149588" size="4" />
			<output>
				<port id="0" precision="FP32">
					<dim>1</dim>
					<dim>1</dim>
					<dim>1</dim>
					<dim>1</dim>
				</port>
			</output>
		</layer>
		<layer id="94" name="aten::rsub/Multiply" type="Multiply" version="opset1">
			<data auto_broadcast="numpy" />
			<input>
				<port id="0" precision="FP32">
					<dim>-1</dim>
					<dim>1</dim>
					<dim>1</dim>
					<dim>-1</dim>
				</port>
				<port id="1" precision="FP32">
					<dim>1</dim>
					<dim>1</dim>
					<dim>1</dim>
					<dim>1</dim>
				</port>
			</input>
			<output>
				<port id="2" precision="FP32">
					<dim>-1</dim>
					<dim>1</dim>
					<dim>1</dim>
					<dim>-1</dim>
				</port>
			</output>
		</layer>
		<layer id="95" name="aten::rsub/Subtract" type="Subtract" version="opset1">
			<data auto_broadcast="numpy" />
			<input>
				<port id="0" precision="FP32">
					<dim>1</dim>
					<dim>1</dim>
					<dim>1</dim>
					<dim>1</dim>
				</port>
				<port id="1" precision="FP32">
					<dim>-1</dim>
					<dim>1</dim>
					<dim>1</dim>
					<dim>-1</dim>
				</port>
			</input>
			<output>
				<port id="2" precision="FP32" names="51">
					<dim>-1</dim>
					<dim>1</dim>
					<dim>1</dim>
					<dim>-1</dim>
				</port>
			</output>
		</layer>
		<layer id="96" name="Constant_9197" type="Const" version="opset1">
			<data element_type="f32" shape="1, 1, 1, 1" offset="104723356" size="4" />
			<output>
				<port id="0" precision="FP32">
					<dim>1</dim>
					<dim>1</dim>
					<dim>1</dim>
					<dim>1</dim>
				</port>
			</output>
		</layer>
		<layer id="97" name="aten::mul/Multiply" type="Multiply" version="opset1">
			<data auto_broadcast="numpy" />
			<input>
				<port id="0" precision="FP32">
					<dim>-1</dim>
					<dim>1</dim>
					<dim>1</dim>
					<dim>-1</dim>
				</port>
				<port id="1" precision="FP32">
					<dim>1</dim>
					<dim>1</dim>
					<dim>1</dim>
					<dim>1</dim>
				</port>
			</input>
			<output>
				<port id="2" precision="FP32" names="53,mask">
					<dim>-1</dim>
					<dim>1</dim>
					<dim>1</dim>
					<dim>-1</dim>
				</port>
			</output>
		</layer>
		<layer id="98" name="__module.block.0.layer.0.SelfAttention/aten::add/Add_2" type="Add" version="opset1">
			<data auto_broadcast="numpy" />
			<input>
				<port id="0" precision="FP32">
					<dim>1</dim>
					<dim>6</dim>
					<dim>-1</dim>
					<dim>-1</dim>
				</port>
				<port id="1" precision="FP32">
					<dim>-1</dim>
					<dim>1</dim>
					<dim>1</dim>
					<dim>-1</dim>
				</port>
			</input>
			<output>
				<port id="2" precision="FP32" names="174,189,194,57,position_bias">
					<dim>-1</dim>
					<dim>6</dim>
					<dim>-1</dim>
					<dim>-1</dim>
				</port>
			</output>
		</layer>
		<layer id="99" name="__module.block.0.layer.0.SelfAttention/aten::add_/Add_1" type="Add" version="opset1">
			<data auto_broadcast="numpy" />
			<input>
				<port id="0" precision="FP32">
					<dim>-1</dim>
					<dim>6</dim>
					<dim>-1</dim>
					<dim>-1</dim>
				</port>
				<port id="1" precision="FP32">
					<dim>-1</dim>
					<dim>6</dim>
					<dim>-1</dim>
					<dim>-1</dim>
				</port>
			</input>
			<output>
				<port id="2" precision="FP32" names="144,176,input.3,scores.1">
					<dim>-1</dim>
					<dim>6</dim>
					<dim>-1</dim>
					<dim>-1</dim>
				</port>
			</output>
		</layer>
		<layer id="100" name="__module.block.0.layer.0.SelfAttention/aten::softmax/Softmax" type="SoftMax" version="opset8">
			<data axis="-1" />
			<input>
				<port id="0" precision="FP32">
					<dim>-1</dim>
					<dim>6</dim>
					<dim>-1</dim>
					<dim>-1</dim>
				</port>
			</input>
			<output>
				<port id="1" precision="FP32" names="177,178,input.5">
					<dim>-1</dim>
					<dim>6</dim>
					<dim>-1</dim>
					<dim>-1</dim>
				</port>
			</output>
		</layer>
		<layer id="101" name="self.block.0.layer.0.SelfAttention.v.weight" type="Const" version="opset1">
			<data element_type="f32" shape="384, 512" offset="104723360" size="786432" />
			<output>
				<port id="0" precision="FP32" names="self.block.0.layer.0.SelfAttention.v.weight">
					<dim>384</dim>
					<dim>512</dim>
				</port>
			</output>
		</layer>
		<layer id="102" name="__module.block.0.layer.0.SelfAttention.v/aten::linear/MatMul" type="MatMul" version="opset1">
			<data transpose_a="false" transpose_b="true" />
			<input>
				<port id="0" precision="FP32">
					<dim>-1</dim>
					<dim>-1</dim>
					<dim>512</dim>
				</port>
				<port id="1" precision="FP32">
					<dim>384</dim>
					<dim>512</dim>
				</port>
			</input>
			<output>
				<port id="2" precision="FP32" names="139,states.5">
					<dim>-1</dim>
					<dim>-1</dim>
					<dim>384</dim>
				</port>
			</output>
		</layer>
		<layer id="103" name="__module.block.0.layer.0.SelfAttention/aten::view/Reshape_2" type="Reshape" version="opset1">
			<data special_zero="false" />
			<input>
				<port id="0" precision="FP32">
					<dim>-1</dim>
					<dim>-1</dim>
					<dim>384</dim>
				</port>
				<port id="1" precision="I64">
					<dim>4</dim>
				</port>
			</input>
			<output>
				<port id="2" precision="FP32" names="141">
					<dim>-1</dim>
					<dim>-1</dim>
					<dim>6</dim>
					<dim>64</dim>
				</port>
			</output>
		</layer>
		<layer id="104" name="__module.block.0.layer.0.SelfAttention/aten::transpose/ScatterElementsUpdate_3" type="Const" version="opset1">
			<data element_type="i32" shape="4" offset="103936056" size="16" />
			<output>
				<port id="0" precision="I32">
					<dim>4</dim>
				</port>
			</output>
		</layer>
		<layer id="105" name="__module.block.0.layer.0.SelfAttention/aten::transpose/Transpose_3" type="Transpose" version="opset1">
			<input>
				<port id="0" precision="FP32">
					<dim>-1</dim>
					<dim>-1</dim>
					<dim>6</dim>
					<dim>64</dim>
				</port>
				<port id="1" precision="I32">
					<dim>4</dim>
				</port>
			</input>
			<output>
				<port id="2" precision="FP32" names="142">
					<dim>-1</dim>
					<dim>6</dim>
					<dim>-1</dim>
					<dim>64</dim>
				</port>
			</output>
		</layer>
		<layer id="106" name="__module.block.0.layer.0.SelfAttention/aten::matmul/MatMul_1" type="MatMul" version="opset1">
			<data transpose_a="false" transpose_b="false" />
			<input>
				<port id="0" precision="FP32">
					<dim>-1</dim>
					<dim>6</dim>
					<dim>-1</dim>
					<dim>-1</dim>
				</port>
				<port id="1" precision="FP32">
					<dim>-1</dim>
					<dim>6</dim>
					<dim>-1</dim>
					<dim>64</dim>
				</port>
			</input>
			<output>
				<port id="2" precision="FP32" names="180,states.7">
					<dim>-1</dim>
					<dim>6</dim>
					<dim>-1</dim>
					<dim>64</dim>
				</port>
			</output>
		</layer>
		<layer id="107" name="__module.block.0.layer.0.SelfAttention/aten::transpose/ScatterElementsUpdate_4" type="Const" version="opset1">
			<data element_type="i32" shape="4" offset="103936056" size="16" />
			<output>
				<port id="0" precision="I32">
					<dim>4</dim>
				</port>
			</output>
		</layer>
		<layer id="108" name="__module.block.0.layer.0.SelfAttention/aten::transpose/Transpose_4" type="Transpose" version="opset1">
			<input>
				<port id="0" precision="FP32">
					<dim>-1</dim>
					<dim>6</dim>
					<dim>-1</dim>
					<dim>64</dim>
				</port>
				<port id="1" precision="I32">
					<dim>4</dim>
				</port>
			</input>
			<output>
				<port id="2" precision="FP32" names="181">
					<dim>-1</dim>
					<dim>-1</dim>
					<dim>6</dim>
					<dim>64</dim>
				</port>
			</output>
		</layer>
		<layer id="109" name="__module.block.0.layer.0.SelfAttention/prim::ListConstruct/Reshape_1_3" type="Const" version="opset1">
			<data element_type="i64" shape="1" offset="105509792" size="8" />
			<output>
				<port id="0" precision="I64">
					<dim>1</dim>
				</port>
			</output>
		</layer>
		<layer id="110" name="__module.block.0.layer.0.SelfAttention/prim::ListConstruct/Concat_3" type="Concat" version="opset1">
			<data axis="0" />
			<input>
				<port id="0" precision="I64">
					<dim>1</dim>
				</port>
				<port id="1" precision="I64">
					<dim>1</dim>
				</port>
				<port id="2" precision="I64">
					<dim>1</dim>
				</port>
			</input>
			<output>
				<port id="3" precision="I64" names="183">
					<dim>3</dim>
				</port>
			</output>
		</layer>
		<layer id="111" name="__module.block.0.layer.0.SelfAttention/aten::view/Reshape_3" type="Reshape" version="opset1">
			<data special_zero="false" />
			<input>
				<port id="0" precision="FP32">
					<dim>-1</dim>
					<dim>-1</dim>
					<dim>6</dim>
					<dim>64</dim>
				</port>
				<port id="1" precision="I64">
					<dim>3</dim>
				</port>
			</input>
			<output>
				<port id="2" precision="FP32" names="184">
					<dim>-1</dim>
					<dim>-1</dim>
					<dim>384</dim>
				</port>
			</output>
		</layer>
		<layer id="112" name="self.block.0.layer.0.SelfAttention.o.weight" type="Const" version="opset1">
			<data element_type="f32" shape="512, 384" offset="105509800" size="786432" />
			<output>
				<port id="0" precision="FP32" names="self.block.0.layer.0.SelfAttention.o.weight">
					<dim>512</dim>
					<dim>384</dim>
				</port>
			</output>
		</layer>
		<layer id="113" name="__module.block.0.layer.0.SelfAttention.o/aten::linear/MatMul" type="MatMul" version="opset1">
			<data transpose_a="false" transpose_b="true" />
			<input>
				<port id="0" precision="FP32">
					<dim>-1</dim>
					<dim>-1</dim>
					<dim>384</dim>
				</port>
				<port id="1" precision="FP32">
					<dim>512</dim>
					<dim>384</dim>
				</port>
			</input>
			<output>
				<port id="2" precision="FP32" names="186,188,input.7">
					<dim>-1</dim>
					<dim>-1</dim>
					<dim>512</dim>
				</port>
			</output>
		</layer>
		<layer id="114" name="__module.block.0.layer.0/aten::add/Add" type="Add" version="opset1">
			<data auto_broadcast="numpy" />
			<input>
				<port id="0" precision="FP32">
					<dim>-1</dim>
					<dim>-1</dim>
					<dim>512</dim>
				</port>
				<port id="1" precision="FP32">
					<dim>-1</dim>
					<dim>-1</dim>
					<dim>512</dim>
				</port>
			</input>
			<output>
				<port id="2" precision="FP32" names="191,193,199,209,hidden_states.11,hidden_states.9">
					<dim>-1</dim>
					<dim>-1</dim>
					<dim>512</dim>
				</port>
			</output>
		</layer>
		<layer id="115" name="Constant_9201" type="Const" version="opset1">
			<data element_type="f32" shape="1, 1, 512" offset="106296232" size="2048" />
			<output>
				<port id="0" precision="FP32">
					<dim>1</dim>
					<dim>1</dim>
					<dim>512</dim>
				</port>
			</output>
		</layer>
		<layer id="116" name="Constant_9200" type="Const" version="opset1">
			<data element_type="f32" shape="1, 1, 1" offset="103149588" size="4" />
			<output>
				<port id="0" precision="FP32">
					<dim>1</dim>
					<dim>1</dim>
					<dim>1</dim>
				</port>
			</output>
		</layer>
		<layer id="117" name="Constant_9198" type="Const" version="opset1">
			<data element_type="f32" shape="1, 1, 1" offset="103149592" size="4" />
			<output>
				<port id="0" precision="FP32">
					<dim>1</dim>
					<dim>1</dim>
					<dim>1</dim>
				</port>
			</output>
		</layer>
		<layer id="118" name="__module.block.0.layer.1.layer_norm/aten::pow/Power" type="Power" version="opset1">
			<data auto_broadcast="numpy" />
			<input>
				<port id="0" precision="FP32">
					<dim>-1</dim>
					<dim>-1</dim>
					<dim>512</dim>
				</port>
				<port id="1" precision="FP32">
					<dim>1</dim>
					<dim>1</dim>
					<dim>1</dim>
				</port>
			</input>
			<output>
				<port id="2" precision="FP32" names="200">
					<dim>-1</dim>
					<dim>-1</dim>
					<dim>512</dim>
				</port>
			</output>
		</layer>
		<layer id="119" name="Constant_495" type="Const" version="opset1">
			<data element_type="i64" shape="1" offset="103147520" size="8" />
			<output>
				<port id="0" precision="I64" names="201">
					<dim>1</dim>
				</port>
			</output>
		</layer>
		<layer id="120" name="__module.block.0.layer.1.layer_norm/aten::mean/ReduceMean" type="ReduceMean" version="opset1">
			<data keep_dims="true" />
			<input>
				<port id="0" precision="FP32">
					<dim>-1</dim>
					<dim>-1</dim>
					<dim>512</dim>
				</port>
				<port id="1" precision="I64">
					<dim>1</dim>
				</port>
			</input>
			<output>
				<port id="2" precision="FP32" names="202,variance.3">
					<dim>-1</dim>
					<dim>-1</dim>
					<dim>1</dim>
				</port>
			</output>
		</layer>
		<layer id="121" name="Constant_9199" type="Const" version="opset1">
			<data element_type="f32" shape="1, 1, 1" offset="103149596" size="4" />
			<output>
				<port id="0" precision="FP32">
					<dim>1</dim>
					<dim>1</dim>
					<dim>1</dim>
				</port>
			</output>
		</layer>
		<layer id="122" name="__module.block.0.layer.1.layer_norm/aten::add/Add" type="Add" version="opset1">
			<data auto_broadcast="numpy" />
			<input>
				<port id="0" precision="FP32">
					<dim>-1</dim>
					<dim>-1</dim>
					<dim>1</dim>
				</port>
				<port id="1" precision="FP32">
					<dim>1</dim>
					<dim>1</dim>
					<dim>1</dim>
				</port>
			</input>
			<output>
				<port id="2" precision="FP32" names="203">
					<dim>-1</dim>
					<dim>-1</dim>
					<dim>1</dim>
				</port>
			</output>
		</layer>
		<layer id="123" name="__module.block.0.layer.1.layer_norm/aten::rsqrt/Sqrt" type="Sqrt" version="opset1">
			<input>
				<port id="0" precision="FP32">
					<dim>-1</dim>
					<dim>-1</dim>
					<dim>1</dim>
				</port>
			</input>
			<output>
				<port id="1" precision="FP32">
					<dim>-1</dim>
					<dim>-1</dim>
					<dim>1</dim>
				</port>
			</output>
		</layer>
		<layer id="124" name="__module.block.0.layer.1.layer_norm/aten::rsqrt/Divide" type="Divide" version="opset1">
			<data auto_broadcast="numpy" m_pythondiv="true" />
			<input>
				<port id="0" precision="FP32">
					<dim>1</dim>
					<dim>1</dim>
					<dim>1</dim>
				</port>
				<port id="1" precision="FP32">
					<dim>-1</dim>
					<dim>-1</dim>
					<dim>1</dim>
				</port>
			</input>
			<output>
				<port id="2" precision="FP32" names="204">
					<dim>-1</dim>
					<dim>-1</dim>
					<dim>1</dim>
				</port>
			</output>
		</layer>
		<layer id="125" name="__module.block.0.layer.1.layer_norm/aten::mul/Multiply" type="Multiply" version="opset1">
			<data auto_broadcast="numpy" />
			<input>
				<port id="0" precision="FP32">
					<dim>-1</dim>
					<dim>-1</dim>
					<dim>512</dim>
				</port>
				<port id="1" precision="FP32">
					<dim>-1</dim>
					<dim>-1</dim>
					<dim>1</dim>
				</port>
			</input>
			<output>
				<port id="2" precision="FP32" names="205,hidden_states.13">
					<dim>-1</dim>
					<dim>-1</dim>
					<dim>512</dim>
				</port>
			</output>
		</layer>
		<layer id="126" name="__module.block.0.layer.1.layer_norm/aten::mul/Multiply_1" type="Multiply" version="opset1">
			<data auto_broadcast="numpy" />
			<input>
				<port id="0" precision="FP32">
					<dim>1</dim>
					<dim>1</dim>
					<dim>512</dim>
				</port>
				<port id="1" precision="FP32">
					<dim>-1</dim>
					<dim>-1</dim>
					<dim>512</dim>
				</port>
			</input>
			<output>
				<port id="2" precision="FP32" names="206,208">
					<dim>-1</dim>
					<dim>-1</dim>
					<dim>512</dim>
				</port>
			</output>
		</layer>
		<layer id="127" name="Constant_9080" type="Const" version="opset1">
			<data element_type="f32" shape="1024, 512" offset="106298280" size="2097152" />
			<output>
				<port id="0" precision="FP32">
					<dim>1024</dim>
					<dim>512</dim>
				</port>
			</output>
		</layer>
		<layer id="128" name="__module.block.0.layer.1.DenseReluDense.act/aten::mul/Multiply" type="MatMul" version="opset1">
			<data transpose_a="false" transpose_b="true" />
			<input>
				<port id="0" precision="FP32">
					<dim>-1</dim>
					<dim>-1</dim>
					<dim>512</dim>
				</port>
				<port id="1" precision="FP32">
					<dim>1024</dim>
					<dim>512</dim>
				</port>
			</input>
			<output>
				<port id="2" precision="FP32" names="217">
					<dim>-1</dim>
					<dim>-1</dim>
					<dim>1024</dim>
				</port>
			</output>
		</layer>
		<layer id="129" name="self.block.0.layer.1.DenseReluDense.wi_0.weight" type="Const" version="opset1">
			<data element_type="f32" shape="1024, 512" offset="108395432" size="2097152" />
			<output>
				<port id="0" precision="FP32" names="self.block.0.layer.1.DenseReluDense.wi_0.weight">
					<dim>1024</dim>
					<dim>512</dim>
				</port>
			</output>
		</layer>
		<layer id="130" name="__module.block.0.layer.1.DenseReluDense.wi_0/aten::linear/MatMul" type="MatMul" version="opset1">
			<data transpose_a="false" transpose_b="true" />
			<input>
				<port id="0" precision="FP32">
					<dim>-1</dim>
					<dim>-1</dim>
					<dim>512</dim>
				</port>
				<port id="1" precision="FP32">
					<dim>1024</dim>
					<dim>512</dim>
				</port>
			</input>
			<output>
				<port id="2" precision="FP32" names="216,input.9">
					<dim>-1</dim>
					<dim>-1</dim>
					<dim>1024</dim>
				</port>
			</output>
		</layer>
		<layer id="131" name="Constant_9202" type="Const" version="opset1">
			<data element_type="f32" shape="1, 1, 1" offset="110492584" size="4" />
			<output>
				<port id="0" precision="FP32">
					<dim>1</dim>
					<dim>1</dim>
					<dim>1</dim>
				</port>
			</output>
		</layer>
		<layer id="132" name="__module.block.0.layer.1.DenseReluDense.act/aten::pow/Power" type="Power" version="opset1">
			<data auto_broadcast="numpy" />
			<input>
				<port id="0" precision="FP32">
					<dim>-1</dim>
					<dim>-1</dim>
					<dim>1024</dim>
				</port>
				<port id="1" precision="FP32">
					<dim>1</dim>
					<dim>1</dim>
					<dim>1</dim>
				</port>
			</input>
			<output>
				<port id="2" precision="FP32" names="218">
					<dim>-1</dim>
					<dim>-1</dim>
					<dim>1024</dim>
				</port>
			</output>
		</layer>
		<layer id="133" name="Constant_9203" type="Const" version="opset1">
			<data element_type="f32" shape="1, 1, 1" offset="110492588" size="4" />
			<output>
				<port id="0" precision="FP32">
					<dim>1</dim>
					<dim>1</dim>
					<dim>1</dim>
				</port>
			</output>
		</layer>
		<layer id="134" name="__module.block.0.layer.1.DenseReluDense.act/aten::mul/Multiply_1" type="Multiply" version="opset1">
			<data auto_broadcast="numpy" />
			<input>
				<port id="0" precision="FP32">
					<dim>-1</dim>
					<dim>-1</dim>
					<dim>1024</dim>
				</port>
				<port id="1" precision="FP32">
					<dim>1</dim>
					<dim>1</dim>
					<dim>1</dim>
				</port>
			</input>
			<output>
				<port id="2" precision="FP32" names="219">
					<dim>-1</dim>
					<dim>-1</dim>
					<dim>1024</dim>
				</port>
			</output>
		</layer>
		<layer id="135" name="__module.block.0.layer.1.DenseReluDense.act/aten::add/Add" type="Add" version="opset1">
			<data auto_broadcast="numpy" />
			<input>
				<port id="0" precision="FP32">
					<dim>-1</dim>
					<dim>-1</dim>
					<dim>1024</dim>
				</port>
				<port id="1" precision="FP32">
					<dim>-1</dim>
					<dim>-1</dim>
					<dim>1024</dim>
				</port>
			</input>
			<output>
				<port id="2" precision="FP32" names="220">
					<dim>-1</dim>
					<dim>-1</dim>
					<dim>1024</dim>
				</port>
			</output>
		</layer>
		<layer id="136" name="Constant_9204" type="Const" version="opset1">
			<data element_type="f32" shape="1, 1, 1" offset="110492592" size="4" />
			<output>
				<port id="0" precision="FP32">
					<dim>1</dim>
					<dim>1</dim>
					<dim>1</dim>
				</port>
			</output>
		</layer>
		<layer id="137" name="__module.block.0.layer.1.DenseReluDense.act/aten::mul/Multiply_2" type="Multiply" version="opset1">
			<data auto_broadcast="numpy" />
			<input>
				<port id="0" precision="FP32">
					<dim>-1</dim>
					<dim>-1</dim>
					<dim>1024</dim>
				</port>
				<port id="1" precision="FP32">
					<dim>1</dim>
					<dim>1</dim>
					<dim>1</dim>
				</port>
			</input>
			<output>
				<port id="2" precision="FP32" names="221">
					<dim>-1</dim>
					<dim>-1</dim>
					<dim>1024</dim>
				</port>
			</output>
		</layer>
		<layer id="138" name="__module.block.0.layer.1.DenseReluDense.act/aten::tanh/Tanh" type="Tanh" version="opset1">
			<input>
				<port id="0" precision="FP32">
					<dim>-1</dim>
					<dim>-1</dim>
					<dim>1024</dim>
				</port>
			</input>
			<output>
				<port id="1" precision="FP32" names="222">
					<dim>-1</dim>
					<dim>-1</dim>
					<dim>1024</dim>
				</port>
			</output>
		</layer>
		<layer id="139" name="Constant_9205" type="Const" version="opset1">
			<data element_type="f32" shape="1, 1, 1" offset="103149588" size="4" />
			<output>
				<port id="0" precision="FP32">
					<dim>1</dim>
					<dim>1</dim>
					<dim>1</dim>
				</port>
			</output>
		</layer>
		<layer id="140" name="__module.block.0.layer.1.DenseReluDense.act/aten::add/Add_1" type="Add" version="opset1">
			<data auto_broadcast="numpy" />
			<input>
				<port id="0" precision="FP32">
					<dim>-1</dim>
					<dim>-1</dim>
					<dim>1024</dim>
				</port>
				<port id="1" precision="FP32">
					<dim>1</dim>
					<dim>1</dim>
					<dim>1</dim>
				</port>
			</input>
			<output>
				<port id="2" precision="FP32" names="223">
					<dim>-1</dim>
					<dim>-1</dim>
					<dim>1024</dim>
				</port>
			</output>
		</layer>
		<layer id="141" name="__module.block.0.layer.1.DenseReluDense.act/aten::mul/Multiply_3" type="Multiply" version="opset1">
			<data auto_broadcast="numpy" />
			<input>
				<port id="0" precision="FP32">
					<dim>-1</dim>
					<dim>-1</dim>
					<dim>1024</dim>
				</port>
				<port id="1" precision="FP32">
					<dim>-1</dim>
					<dim>-1</dim>
					<dim>1024</dim>
				</port>
			</input>
			<output>
				<port id="2" precision="FP32" names="224,hidden_gelu.1">
					<dim>-1</dim>
					<dim>-1</dim>
					<dim>1024</dim>
				</port>
			</output>
		</layer>
		<layer id="142" name="self.block.0.layer.1.DenseReluDense.wi_1.weight" type="Const" version="opset1">
			<data element_type="f32" shape="1024, 512" offset="110492596" size="2097152" />
			<output>
				<port id="0" precision="FP32" names="self.block.0.layer.1.DenseReluDense.wi_1.weight">
					<dim>1024</dim>
					<dim>512</dim>
				</port>
			</output>
		</layer>
		<layer id="143" name="__module.block.0.layer.1.DenseReluDense.wi_1/aten::linear/MatMul" type="MatMul" version="opset1">
			<data transpose_a="false" transpose_b="true" />
			<input>
				<port id="0" precision="FP32">
					<dim>-1</dim>
					<dim>-1</dim>
					<dim>512</dim>
				</port>
				<port id="1" precision="FP32">
					<dim>1024</dim>
					<dim>512</dim>
				</port>
			</input>
			<output>
				<port id="2" precision="FP32" names="226,hidden_linear.1">
					<dim>-1</dim>
					<dim>-1</dim>
					<dim>1024</dim>
				</port>
			</output>
		</layer>
		<layer id="144" name="__module.block.0.layer.1.DenseReluDense/aten::mul/Multiply" type="Multiply" version="opset1">
			<data auto_broadcast="numpy" />
			<input>
				<port id="0" precision="FP32">
					<dim>-1</dim>
					<dim>-1</dim>
					<dim>1024</dim>
				</port>
				<port id="1" precision="FP32">
					<dim>-1</dim>
					<dim>-1</dim>
					<dim>1024</dim>
				</port>
			</input>
			<output>
				<port id="2" precision="FP32" names="227,input.11">
					<dim>-1</dim>
					<dim>-1</dim>
					<dim>1024</dim>
				</port>
			</output>
		</layer>
		<layer id="145" name="self.block.0.layer.1.DenseReluDense.wo.weight" type="Const" version="opset1">
			<data element_type="f32" shape="512, 1024" offset="112589748" size="2097152" />
			<output>
				<port id="0" precision="FP32" names="self.block.0.layer.1.DenseReluDense.wo.weight">
					<dim>512</dim>
					<dim>1024</dim>
				</port>
			</output>
		</layer>
		<layer id="146" name="__module.block.0.layer.1.DenseReluDense.wo/aten::linear/MatMul" type="MatMul" version="opset1">
			<data transpose_a="false" transpose_b="true" />
			<input>
				<port id="0" precision="FP32">
					<dim>-1</dim>
					<dim>-1</dim>
					<dim>1024</dim>
				</port>
				<port id="1" precision="FP32">
					<dim>512</dim>
					<dim>1024</dim>
				</port>
			</input>
			<output>
				<port id="2" precision="FP32" names="230,input.13">
					<dim>-1</dim>
					<dim>-1</dim>
					<dim>512</dim>
				</port>
			</output>
		</layer>
		<layer id="147" name="__module.block.0.layer.1/aten::add/Add" type="Add" version="opset1">
			<data auto_broadcast="numpy" />
			<input>
				<port id="0" precision="FP32">
					<dim>-1</dim>
					<dim>-1</dim>
					<dim>512</dim>
				</port>
				<port id="1" precision="FP32">
					<dim>-1</dim>
					<dim>-1</dim>
					<dim>512</dim>
				</port>
			</input>
			<output>
				<port id="2" precision="FP32" names="232,260,270,56,hidden_states.15,hidden_states.17">
					<dim>-1</dim>
					<dim>-1</dim>
					<dim>512</dim>
				</port>
			</output>
		</layer>
		<layer id="148" name="Constant_9209" type="Const" version="opset1">
			<data element_type="f32" shape="1, 1, 512" offset="114686900" size="2048" />
			<output>
				<port id="0" precision="FP32">
					<dim>1</dim>
					<dim>1</dim>
					<dim>512</dim>
				</port>
			</output>
		</layer>
		<layer id="149" name="Constant_9208" type="Const" version="opset1">
			<data element_type="f32" shape="1, 1, 1" offset="103149588" size="4" />
			<output>
				<port id="0" precision="FP32">
					<dim>1</dim>
					<dim>1</dim>
					<dim>1</dim>
				</port>
			</output>
		</layer>
		<layer id="150" name="Constant_9206" type="Const" version="opset1">
			<data element_type="f32" shape="1, 1, 1" offset="103149592" size="4" />
			<output>
				<port id="0" precision="FP32">
					<dim>1</dim>
					<dim>1</dim>
					<dim>1</dim>
				</port>
			</output>
		</layer>
		<layer id="151" name="__module.block.1.layer.0.layer_norm/aten::pow/Power" type="Power" version="opset1">
			<data auto_broadcast="numpy" />
			<input>
				<port id="0" precision="FP32">
					<dim>-1</dim>
					<dim>-1</dim>
					<dim>512</dim>
				</port>
				<port id="1" precision="FP32">
					<dim>1</dim>
					<dim>1</dim>
					<dim>1</dim>
				</port>
			</input>
			<output>
				<port id="2" precision="FP32" names="261">
					<dim>-1</dim>
					<dim>-1</dim>
					<dim>512</dim>
				</port>
			</output>
		</layer>
		<layer id="152" name="Constant_628" type="Const" version="opset1">
			<data element_type="i64" shape="1" offset="103147520" size="8" />
			<output>
				<port id="0" precision="I64" names="262">
					<dim>1</dim>
				</port>
			</output>
		</layer>
		<layer id="153" name="__module.block.1.layer.0.layer_norm/aten::mean/ReduceMean" type="ReduceMean" version="opset1">
			<data keep_dims="true" />
			<input>
				<port id="0" precision="FP32">
					<dim>-1</dim>
					<dim>-1</dim>
					<dim>512</dim>
				</port>
				<port id="1" precision="I64">
					<dim>1</dim>
				</port>
			</input>
			<output>
				<port id="2" precision="FP32" names="263,variance.5">
					<dim>-1</dim>
					<dim>-1</dim>
					<dim>1</dim>
				</port>
			</output>
		</layer>
		<layer id="154" name="Constant_9207" type="Const" version="opset1">
			<data element_type="f32" shape="1, 1, 1" offset="103149596" size="4" />
			<output>
				<port id="0" precision="FP32">
					<dim>1</dim>
					<dim>1</dim>
					<dim>1</dim>
				</port>
			</output>
		</layer>
		<layer id="155" name="__module.block.1.layer.0.layer_norm/aten::add/Add" type="Add" version="opset1">
			<data auto_broadcast="numpy" />
			<input>
				<port id="0" precision="FP32">
					<dim>-1</dim>
					<dim>-1</dim>
					<dim>1</dim>
				</port>
				<port id="1" precision="FP32">
					<dim>1</dim>
					<dim>1</dim>
					<dim>1</dim>
				</port>
			</input>
			<output>
				<port id="2" precision="FP32" names="264">
					<dim>-1</dim>
					<dim>-1</dim>
					<dim>1</dim>
				</port>
			</output>
		</layer>
		<layer id="156" name="__module.block.1.layer.0.layer_norm/aten::rsqrt/Sqrt" type="Sqrt" version="opset1">
			<input>
				<port id="0" precision="FP32">
					<dim>-1</dim>
					<dim>-1</dim>
					<dim>1</dim>
				</port>
			</input>
			<output>
				<port id="1" precision="FP32">
					<dim>-1</dim>
					<dim>-1</dim>
					<dim>1</dim>
				</port>
			</output>
		</layer>
		<layer id="157" name="__module.block.1.layer.0.layer_norm/aten::rsqrt/Divide" type="Divide" version="opset1">
			<data auto_broadcast="numpy" m_pythondiv="true" />
			<input>
				<port id="0" precision="FP32">
					<dim>1</dim>
					<dim>1</dim>
					<dim>1</dim>
				</port>
				<port id="1" precision="FP32">
					<dim>-1</dim>
					<dim>-1</dim>
					<dim>1</dim>
				</port>
			</input>
			<output>
				<port id="2" precision="FP32" names="265">
					<dim>-1</dim>
					<dim>-1</dim>
					<dim>1</dim>
				</port>
			</output>
		</layer>
		<layer id="158" name="__module.block.1.layer.0.layer_norm/aten::mul/Multiply" type="Multiply" version="opset1">
			<data auto_broadcast="numpy" />
			<input>
				<port id="0" precision="FP32">
					<dim>-1</dim>
					<dim>-1</dim>
					<dim>512</dim>
				</port>
				<port id="1" precision="FP32">
					<dim>-1</dim>
					<dim>-1</dim>
					<dim>1</dim>
				</port>
			</input>
			<output>
				<port id="2" precision="FP32" names="266,hidden_states.19">
					<dim>-1</dim>
					<dim>-1</dim>
					<dim>512</dim>
				</port>
			</output>
		</layer>
		<layer id="159" name="__module.block.1.layer.0.layer_norm/aten::mul/Multiply_1" type="Multiply" version="opset1">
			<data auto_broadcast="numpy" />
			<input>
				<port id="0" precision="FP32">
					<dim>1</dim>
					<dim>1</dim>
					<dim>512</dim>
				</port>
				<port id="1" precision="FP32">
					<dim>-1</dim>
					<dim>-1</dim>
					<dim>512</dim>
				</port>
			</input>
			<output>
				<port id="2" precision="FP32" names="267,269,hidden_states.21">
					<dim>-1</dim>
					<dim>-1</dim>
					<dim>512</dim>
				</port>
			</output>
		</layer>
		<layer id="160" name="self.block.1.layer.0.SelfAttention.q.weight" type="Const" version="opset1">
			<data element_type="f32" shape="384, 512" offset="114688948" size="786432" />
			<output>
				<port id="0" precision="FP32" names="self.block.1.layer.0.SelfAttention.q.weight">
					<dim>384</dim>
					<dim>512</dim>
				</port>
			</output>
		</layer>
		<layer id="161" name="__module.block.1.layer.0.SelfAttention.q/aten::linear/MatMul" type="MatMul" version="opset1">
			<data transpose_a="false" transpose_b="true" />
			<input>
				<port id="0" precision="FP32">
					<dim>-1</dim>
					<dim>-1</dim>
					<dim>512</dim>
				</port>
				<port id="1" precision="FP32">
					<dim>384</dim>
					<dim>512</dim>
				</port>
			</input>
			<output>
				<port id="2" precision="FP32" names="277,states.9">
					<dim>-1</dim>
					<dim>-1</dim>
					<dim>384</dim>
				</port>
			</output>
		</layer>
		<layer id="162" name="__module.block.1.layer.0.SelfAttention/aten::size/ShapeOf" type="ShapeOf" version="opset3">
			<data output_type="i64" />
			<input>
				<port id="0" precision="FP32">
					<dim>-1</dim>
					<dim>-1</dim>
					<dim>512</dim>
				</port>
			</input>
			<output>
				<port id="1" precision="I64">
					<dim>3</dim>
				</port>
			</output>
		</layer>
		<layer id="163" name="Constant_8618" type="Const" version="opset1">
			<data element_type="i64" shape="1" offset="103936032" size="8" />
			<output>
				<port id="0" precision="I64">
					<dim>1</dim>
				</port>
			</output>
		</layer>
		<layer id="164" name="__module.block.1.layer.0.SelfAttention/aten::size/Constant" type="Const" version="opset1">
			<data element_type="i32" shape="" offset="103147536" size="4" />
			<output>
				<port id="0" precision="I32" />
			</output>
		</layer>
		<layer id="165" name="__module.block.1.layer.0.SelfAttention/aten::size/Gather" type="Gather" version="opset8">
			<data batch_dims="0" />
			<input>
				<port id="0" precision="I64">
					<dim>3</dim>
				</port>
				<port id="1" precision="I64">
					<dim>1</dim>
				</port>
				<port id="2" precision="I32" />
			</input>
			<output>
				<port id="3" precision="I64" names="275">
					<dim>1</dim>
				</port>
			</output>
		</layer>
		<layer id="166" name="__module.block.1.layer.0.SelfAttention/prim::ListConstruct/Reshape_0" type="Const" version="opset1">
			<data element_type="i64" shape="1" offset="103147520" size="8" />
			<output>
				<port id="0" precision="I64">
					<dim>1</dim>
				</port>
			</output>
		</layer>
		<layer id="167" name="__module.block.1.layer.0.SelfAttention/prim::ListConstruct/Reshape_1" type="Const" version="opset1">
			<data element_type="i64" shape="1" offset="103936040" size="8" />
			<output>
				<port id="0" precision="I64">
					<dim>1</dim>
				</port>
			</output>
		</layer>
		<layer id="168" name="__module.block.1.layer.0.SelfAttention/prim::ListConstruct/Reshape_2" type="Const" version="opset1">
			<data element_type="i64" shape="1" offset="103936048" size="8" />
			<output>
				<port id="0" precision="I64">
					<dim>1</dim>
				</port>
			</output>
		</layer>
		<layer id="169" name="__module.block.1.layer.0.SelfAttention/prim::ListConstruct/Concat" type="Concat" version="opset1">
			<data axis="0" />
			<input>
				<port id="0" precision="I64">
					<dim>1</dim>
				</port>
				<port id="1" precision="I64">
					<dim>1</dim>
				</port>
				<port id="2" precision="I64">
					<dim>1</dim>
				</port>
				<port id="3" precision="I64">
					<dim>1</dim>
				</port>
			</input>
			<output>
				<port id="4" precision="I64" names="278,283,288">
					<dim>4</dim>
				</port>
			</output>
		</layer>
		<layer id="170" name="__module.block.1.layer.0.SelfAttention/aten::view/Reshape" type="Reshape" version="opset1">
			<data special_zero="false" />
			<input>
				<port id="0" precision="FP32">
					<dim>-1</dim>
					<dim>-1</dim>
					<dim>384</dim>
				</port>
				<port id="1" precision="I64">
					<dim>4</dim>
				</port>
			</input>
			<output>
				<port id="2" precision="FP32" names="279">
					<dim>-1</dim>
					<dim>-1</dim>
					<dim>6</dim>
					<dim>64</dim>
				</port>
			</output>
		</layer>
		<layer id="171" name="__module.block.1.layer.0.SelfAttention/aten::transpose/ScatterElementsUpdate" type="Const" version="opset1">
			<data element_type="i32" shape="4" offset="103936056" size="16" />
			<output>
				<port id="0" precision="I32">
					<dim>4</dim>
				</port>
			</output>
		</layer>
		<layer id="172" name="__module.block.1.layer.0.SelfAttention/aten::transpose/Transpose" type="Transpose" version="opset1">
			<input>
				<port id="0" precision="FP32">
					<dim>-1</dim>
					<dim>-1</dim>
					<dim>6</dim>
					<dim>64</dim>
				</port>
				<port id="1" precision="I32">
					<dim>4</dim>
				</port>
			</input>
			<output>
				<port id="2" precision="FP32" names="280">
					<dim>-1</dim>
					<dim>6</dim>
					<dim>-1</dim>
					<dim>64</dim>
				</port>
			</output>
		</layer>
		<layer id="173" name="self.block.1.layer.0.SelfAttention.k.weight" type="Const" version="opset1">
			<data element_type="f32" shape="384, 512" offset="115475380" size="786432" />
			<output>
				<port id="0" precision="FP32" names="self.block.1.layer.0.SelfAttention.k.weight">
					<dim>384</dim>
					<dim>512</dim>
				</port>
			</output>
		</layer>
		<layer id="174" name="__module.block.1.layer.0.SelfAttention.k/aten::linear/MatMul" type="MatMul" version="opset1">
			<data transpose_a="false" transpose_b="true" />
			<input>
				<port id="0" precision="FP32">
					<dim>-1</dim>
					<dim>-1</dim>
					<dim>512</dim>
				</port>
				<port id="1" precision="FP32">
					<dim>384</dim>
					<dim>512</dim>
				</port>
			</input>
			<output>
				<port id="2" precision="FP32" names="282,states.11">
					<dim>-1</dim>
					<dim>-1</dim>
					<dim>384</dim>
				</port>
			</output>
		</layer>
		<layer id="175" name="__module.block.1.layer.0.SelfAttention/aten::view/Reshape_1" type="Reshape" version="opset1">
			<data special_zero="false" />
			<input>
				<port id="0" precision="FP32">
					<dim>-1</dim>
					<dim>-1</dim>
					<dim>384</dim>
				</port>
				<port id="1" precision="I64">
					<dim>4</dim>
				</port>
			</input>
			<output>
				<port id="2" precision="FP32" names="284">
					<dim>-1</dim>
					<dim>-1</dim>
					<dim>6</dim>
					<dim>64</dim>
				</port>
			</output>
		</layer>
		<layer id="176" name="Constant_8688" type="Const" version="opset1">
			<data element_type="i32" shape="4" offset="104722504" size="16" />
			<output>
				<port id="0" precision="I32">
					<dim>4</dim>
				</port>
			</output>
		</layer>
		<layer id="177" name="__module.block.1.layer.0.SelfAttention/aten::transpose/Transpose_2" type="Transpose" version="opset1">
			<input>
				<port id="0" precision="FP32">
					<dim>-1</dim>
					<dim>-1</dim>
					<dim>6</dim>
					<dim>64</dim>
				</port>
				<port id="1" precision="I32">
					<dim>4</dim>
				</port>
			</input>
			<output>
				<port id="2" precision="FP32" names="291">
					<dim>-1</dim>
					<dim>6</dim>
					<dim>64</dim>
					<dim>-1</dim>
				</port>
			</output>
		</layer>
		<layer id="178" name="__module.block.1.layer.0.SelfAttention/aten::matmul/MatMul" type="MatMul" version="opset1">
			<data transpose_a="false" transpose_b="false" />
			<input>
				<port id="0" precision="FP32">
					<dim>-1</dim>
					<dim>6</dim>
					<dim>-1</dim>
					<dim>64</dim>
				</port>
				<port id="1" precision="FP32">
					<dim>-1</dim>
					<dim>6</dim>
					<dim>64</dim>
					<dim>-1</dim>
				</port>
			</input>
			<output>
				<port id="2" precision="FP32" names="292_1">
					<dim>-1</dim>
					<dim>6</dim>
					<dim>-1</dim>
					<dim>-1</dim>
				</port>
			</output>
		</layer>
		<layer id="179" name="__module.block.1.layer.0.SelfAttention/aten::add_/Add" type="Add" version="opset1">
			<data auto_broadcast="numpy" />
			<input>
				<port id="0" precision="FP32">
					<dim>-1</dim>
					<dim>6</dim>
					<dim>-1</dim>
					<dim>-1</dim>
				</port>
				<port id="1" precision="FP32">
					<dim>-1</dim>
					<dim>6</dim>
					<dim>-1</dim>
					<dim>-1</dim>
				</port>
			</input>
			<output>
				<port id="2" precision="FP32" names="292,294,input.15,scores.5">
					<dim>-1</dim>
					<dim>6</dim>
					<dim>-1</dim>
					<dim>-1</dim>
				</port>
			</output>
		</layer>
		<layer id="180" name="__module.block.1.layer.0.SelfAttention/aten::softmax/Softmax" type="SoftMax" version="opset8">
			<data axis="-1" />
			<input>
				<port id="0" precision="FP32">
					<dim>-1</dim>
					<dim>6</dim>
					<dim>-1</dim>
					<dim>-1</dim>
				</port>
			</input>
			<output>
				<port id="1" precision="FP32" names="295,296,input.17">
					<dim>-1</dim>
					<dim>6</dim>
					<dim>-1</dim>
					<dim>-1</dim>
				</port>
			</output>
		</layer>
		<layer id="181" name="self.block.1.layer.0.SelfAttention.v.weight" type="Const" version="opset1">
			<data element_type="f32" shape="384, 512" offset="116261812" size="786432" />
			<output>
				<port id="0" precision="FP32" names="self.block.1.layer.0.SelfAttention.v.weight">
					<dim>384</dim>
					<dim>512</dim>
				</port>
			</output>
		</layer>
		<layer id="182" name="__module.block.1.layer.0.SelfAttention.v/aten::linear/MatMul" type="MatMul" version="opset1">
			<data transpose_a="false" transpose_b="true" />
			<input>
				<port id="0" precision="FP32">
					<dim>-1</dim>
					<dim>-1</dim>
					<dim>512</dim>
				</port>
				<port id="1" precision="FP32">
					<dim>384</dim>
					<dim>512</dim>
				</port>
			</input>
			<output>
				<port id="2" precision="FP32" names="287,states.13">
					<dim>-1</dim>
					<dim>-1</dim>
					<dim>384</dim>
				</port>
			</output>
		</layer>
		<layer id="183" name="__module.block.1.layer.0.SelfAttention/aten::view/Reshape_2" type="Reshape" version="opset1">
			<data special_zero="false" />
			<input>
				<port id="0" precision="FP32">
					<dim>-1</dim>
					<dim>-1</dim>
					<dim>384</dim>
				</port>
				<port id="1" precision="I64">
					<dim>4</dim>
				</port>
			</input>
			<output>
				<port id="2" precision="FP32" names="289">
					<dim>-1</dim>
					<dim>-1</dim>
					<dim>6</dim>
					<dim>64</dim>
				</port>
			</output>
		</layer>
		<layer id="184" name="__module.block.1.layer.0.SelfAttention/aten::transpose/ScatterElementsUpdate_3" type="Const" version="opset1">
			<data element_type="i32" shape="4" offset="103936056" size="16" />
			<output>
				<port id="0" precision="I32">
					<dim>4</dim>
				</port>
			</output>
		</layer>
		<layer id="185" name="__module.block.1.layer.0.SelfAttention/aten::transpose/Transpose_3" type="Transpose" version="opset1">
			<input>
				<port id="0" precision="FP32">
					<dim>-1</dim>
					<dim>-1</dim>
					<dim>6</dim>
					<dim>64</dim>
				</port>
				<port id="1" precision="I32">
					<dim>4</dim>
				</port>
			</input>
			<output>
				<port id="2" precision="FP32" names="290">
					<dim>-1</dim>
					<dim>6</dim>
					<dim>-1</dim>
					<dim>64</dim>
				</port>
			</output>
		</layer>
		<layer id="186" name="__module.block.1.layer.0.SelfAttention/aten::matmul/MatMul_1" type="MatMul" version="opset1">
			<data transpose_a="false" transpose_b="false" />
			<input>
				<port id="0" precision="FP32">
					<dim>-1</dim>
					<dim>6</dim>
					<dim>-1</dim>
					<dim>-1</dim>
				</port>
				<port id="1" precision="FP32">
					<dim>-1</dim>
					<dim>6</dim>
					<dim>-1</dim>
					<dim>64</dim>
				</port>
			</input>
			<output>
				<port id="2" precision="FP32" names="298,states.15">
					<dim>-1</dim>
					<dim>6</dim>
					<dim>-1</dim>
					<dim>64</dim>
				</port>
			</output>
		</layer>
		<layer id="187" name="__module.block.1.layer.0.SelfAttention/aten::transpose/ScatterElementsUpdate_4" type="Const" version="opset1">
			<data element_type="i32" shape="4" offset="103936056" size="16" />
			<output>
				<port id="0" precision="I32">
					<dim>4</dim>
				</port>
			</output>
		</layer>
		<layer id="188" name="__module.block.1.layer.0.SelfAttention/aten::transpose/Transpose_4" type="Transpose" version="opset1">
			<input>
				<port id="0" precision="FP32">
					<dim>-1</dim>
					<dim>6</dim>
					<dim>-1</dim>
					<dim>64</dim>
				</port>
				<port id="1" precision="I32">
					<dim>4</dim>
				</port>
			</input>
			<output>
				<port id="2" precision="FP32" names="299">
					<dim>-1</dim>
					<dim>-1</dim>
					<dim>6</dim>
					<dim>64</dim>
				</port>
			</output>
		</layer>
		<layer id="189" name="__module.block.1.layer.0.SelfAttention/prim::ListConstruct/Reshape_1_3" type="Const" version="opset1">
			<data element_type="i64" shape="1" offset="105509792" size="8" />
			<output>
				<port id="0" precision="I64">
					<dim>1</dim>
				</port>
			</output>
		</layer>
		<layer id="190" name="__module.block.1.layer.0.SelfAttention/prim::ListConstruct/Concat_3" type="Concat" version="opset1">
			<data axis="0" />
			<input>
				<port id="0" precision="I64">
					<dim>1</dim>
				</port>
				<port id="1" precision="I64">
					<dim>1</dim>
				</port>
				<port id="2" precision="I64">
					<dim>1</dim>
				</port>
			</input>
			<output>
				<port id="3" precision="I64" names="301">
					<dim>3</dim>
				</port>
			</output>
		</layer>
		<layer id="191" name="__module.block.1.layer.0.SelfAttention/aten::view/Reshape_3" type="Reshape" version="opset1">
			<data special_zero="false" />
			<input>
				<port id="0" precision="FP32">
					<dim>-1</dim>
					<dim>-1</dim>
					<dim>6</dim>
					<dim>64</dim>
				</port>
				<port id="1" precision="I64">
					<dim>3</dim>
				</port>
			</input>
			<output>
				<port id="2" precision="FP32" names="302">
					<dim>-1</dim>
					<dim>-1</dim>
					<dim>384</dim>
				</port>
			</output>
		</layer>
		<layer id="192" name="self.block.1.layer.0.SelfAttention.o.weight" type="Const" version="opset1">
			<data element_type="f32" shape="512, 384" offset="117048244" size="786432" />
			<output>
				<port id="0" precision="FP32" names="self.block.1.layer.0.SelfAttention.o.weight">
					<dim>512</dim>
					<dim>384</dim>
				</port>
			</output>
		</layer>
		<layer id="193" name="__module.block.1.layer.0.SelfAttention.o/aten::linear/MatMul" type="MatMul" version="opset1">
			<data transpose_a="false" transpose_b="true" />
			<input>
				<port id="0" precision="FP32">
					<dim>-1</dim>
					<dim>-1</dim>
					<dim>384</dim>
				</port>
				<port id="1" precision="FP32">
					<dim>512</dim>
					<dim>384</dim>
				</port>
			</input>
			<output>
				<port id="2" precision="FP32" names="304,input.19">
					<dim>-1</dim>
					<dim>-1</dim>
					<dim>512</dim>
				</port>
			</output>
		</layer>
		<layer id="194" name="__module.block.1.layer.0/aten::add/Add" type="Add" version="opset1">
			<data auto_broadcast="numpy" />
			<input>
				<port id="0" precision="FP32">
					<dim>-1</dim>
					<dim>-1</dim>
					<dim>512</dim>
				</port>
				<port id="1" precision="FP32">
					<dim>-1</dim>
					<dim>-1</dim>
					<dim>512</dim>
				</port>
			</input>
			<output>
				<port id="2" precision="FP32" names="306,311,321,hidden_states.23,hidden_states.25">
					<dim>-1</dim>
					<dim>-1</dim>
					<dim>512</dim>
				</port>
			</output>
		</layer>
		<layer id="195" name="Constant_9213" type="Const" version="opset1">
			<data element_type="f32" shape="1, 1, 512" offset="117834676" size="2048" />
			<output>
				<port id="0" precision="FP32">
					<dim>1</dim>
					<dim>1</dim>
					<dim>512</dim>
				</port>
			</output>
		</layer>
		<layer id="196" name="Constant_9212" type="Const" version="opset1">
			<data element_type="f32" shape="1, 1, 1" offset="103149588" size="4" />
			<output>
				<port id="0" precision="FP32">
					<dim>1</dim>
					<dim>1</dim>
					<dim>1</dim>
				</port>
			</output>
		</layer>
		<layer id="197" name="Constant_9210" type="Const" version="opset1">
			<data element_type="f32" shape="1, 1, 1" offset="103149592" size="4" />
			<output>
				<port id="0" precision="FP32">
					<dim>1</dim>
					<dim>1</dim>
					<dim>1</dim>
				</port>
			</output>
		</layer>
		<layer id="198" name="__module.block.1.layer.1.layer_norm/aten::pow/Power" type="Power" version="opset1">
			<data auto_broadcast="numpy" />
			<input>
				<port id="0" precision="FP32">
					<dim>-1</dim>
					<dim>-1</dim>
					<dim>512</dim>
				</port>
				<port id="1" precision="FP32">
					<dim>1</dim>
					<dim>1</dim>
					<dim>1</dim>
				</port>
			</input>
			<output>
				<port id="2" precision="FP32" names="312">
					<dim>-1</dim>
					<dim>-1</dim>
					<dim>512</dim>
				</port>
			</output>
		</layer>
		<layer id="199" name="Constant_851" type="Const" version="opset1">
			<data element_type="i64" shape="1" offset="103147520" size="8" />
			<output>
				<port id="0" precision="I64" names="313">
					<dim>1</dim>
				</port>
			</output>
		</layer>
		<layer id="200" name="__module.block.1.layer.1.layer_norm/aten::mean/ReduceMean" type="ReduceMean" version="opset1">
			<data keep_dims="true" />
			<input>
				<port id="0" precision="FP32">
					<dim>-1</dim>
					<dim>-1</dim>
					<dim>512</dim>
				</port>
				<port id="1" precision="I64">
					<dim>1</dim>
				</port>
			</input>
			<output>
				<port id="2" precision="FP32" names="314,variance.7">
					<dim>-1</dim>
					<dim>-1</dim>
					<dim>1</dim>
				</port>
			</output>
		</layer>
		<layer id="201" name="Constant_9211" type="Const" version="opset1">
			<data element_type="f32" shape="1, 1, 1" offset="103149596" size="4" />
			<output>
				<port id="0" precision="FP32">
					<dim>1</dim>
					<dim>1</dim>
					<dim>1</dim>
				</port>
			</output>
		</layer>
		<layer id="202" name="__module.block.1.layer.1.layer_norm/aten::add/Add" type="Add" version="opset1">
			<data auto_broadcast="numpy" />
			<input>
				<port id="0" precision="FP32">
					<dim>-1</dim>
					<dim>-1</dim>
					<dim>1</dim>
				</port>
				<port id="1" precision="FP32">
					<dim>1</dim>
					<dim>1</dim>
					<dim>1</dim>
				</port>
			</input>
			<output>
				<port id="2" precision="FP32" names="315">
					<dim>-1</dim>
					<dim>-1</dim>
					<dim>1</dim>
				</port>
			</output>
		</layer>
		<layer id="203" name="__module.block.1.layer.1.layer_norm/aten::rsqrt/Sqrt" type="Sqrt" version="opset1">
			<input>
				<port id="0" precision="FP32">
					<dim>-1</dim>
					<dim>-1</dim>
					<dim>1</dim>
				</port>
			</input>
			<output>
				<port id="1" precision="FP32">
					<dim>-1</dim>
					<dim>-1</dim>
					<dim>1</dim>
				</port>
			</output>
		</layer>
		<layer id="204" name="__module.block.1.layer.1.layer_norm/aten::rsqrt/Divide" type="Divide" version="opset1">
			<data auto_broadcast="numpy" m_pythondiv="true" />
			<input>
				<port id="0" precision="FP32">
					<dim>1</dim>
					<dim>1</dim>
					<dim>1</dim>
				</port>
				<port id="1" precision="FP32">
					<dim>-1</dim>
					<dim>-1</dim>
					<dim>1</dim>
				</port>
			</input>
			<output>
				<port id="2" precision="FP32" names="316">
					<dim>-1</dim>
					<dim>-1</dim>
					<dim>1</dim>
				</port>
			</output>
		</layer>
		<layer id="205" name="__module.block.1.layer.1.layer_norm/aten::mul/Multiply" type="Multiply" version="opset1">
			<data auto_broadcast="numpy" />
			<input>
				<port id="0" precision="FP32">
					<dim>-1</dim>
					<dim>-1</dim>
					<dim>512</dim>
				</port>
				<port id="1" precision="FP32">
					<dim>-1</dim>
					<dim>-1</dim>
					<dim>1</dim>
				</port>
			</input>
			<output>
				<port id="2" precision="FP32" names="317,hidden_states.27">
					<dim>-1</dim>
					<dim>-1</dim>
					<dim>512</dim>
				</port>
			</output>
		</layer>
		<layer id="206" name="__module.block.1.layer.1.layer_norm/aten::mul/Multiply_1" type="Multiply" version="opset1">
			<data auto_broadcast="numpy" />
			<input>
				<port id="0" precision="FP32">
					<dim>1</dim>
					<dim>1</dim>
					<dim>512</dim>
				</port>
				<port id="1" precision="FP32">
					<dim>-1</dim>
					<dim>-1</dim>
					<dim>512</dim>
				</port>
			</input>
			<output>
				<port id="2" precision="FP32" names="318,320">
					<dim>-1</dim>
					<dim>-1</dim>
					<dim>512</dim>
				</port>
			</output>
		</layer>
		<layer id="207" name="Constant_9083" type="Const" version="opset1">
			<data element_type="f32" shape="1024, 512" offset="117836724" size="2097152" />
			<output>
				<port id="0" precision="FP32">
					<dim>1024</dim>
					<dim>512</dim>
				</port>
			</output>
		</layer>
		<layer id="208" name="__module.block.1.layer.1.DenseReluDense.act/aten::mul/Multiply" type="MatMul" version="opset1">
			<data transpose_a="false" transpose_b="true" />
			<input>
				<port id="0" precision="FP32">
					<dim>-1</dim>
					<dim>-1</dim>
					<dim>512</dim>
				</port>
				<port id="1" precision="FP32">
					<dim>1024</dim>
					<dim>512</dim>
				</port>
			</input>
			<output>
				<port id="2" precision="FP32" names="329">
					<dim>-1</dim>
					<dim>-1</dim>
					<dim>1024</dim>
				</port>
			</output>
		</layer>
		<layer id="209" name="self.block.1.layer.1.DenseReluDense.wi_0.weight" type="Const" version="opset1">
			<data element_type="f32" shape="1024, 512" offset="119933876" size="2097152" />
			<output>
				<port id="0" precision="FP32" names="self.block.1.layer.1.DenseReluDense.wi_0.weight">
					<dim>1024</dim>
					<dim>512</dim>
				</port>
			</output>
		</layer>
		<layer id="210" name="__module.block.1.layer.1.DenseReluDense.wi_0/aten::linear/MatMul" type="MatMul" version="opset1">
			<data transpose_a="false" transpose_b="true" />
			<input>
				<port id="0" precision="FP32">
					<dim>-1</dim>
					<dim>-1</dim>
					<dim>512</dim>
				</port>
				<port id="1" precision="FP32">
					<dim>1024</dim>
					<dim>512</dim>
				</port>
			</input>
			<output>
				<port id="2" precision="FP32" names="328,input.21">
					<dim>-1</dim>
					<dim>-1</dim>
					<dim>1024</dim>
				</port>
			</output>
		</layer>
		<layer id="211" name="Constant_9214" type="Const" version="opset1">
			<data element_type="f32" shape="1, 1, 1" offset="110492584" size="4" />
			<output>
				<port id="0" precision="FP32">
					<dim>1</dim>
					<dim>1</dim>
					<dim>1</dim>
				</port>
			</output>
		</layer>
		<layer id="212" name="__module.block.1.layer.1.DenseReluDense.act/aten::pow/Power" type="Power" version="opset1">
			<data auto_broadcast="numpy" />
			<input>
				<port id="0" precision="FP32">
					<dim>-1</dim>
					<dim>-1</dim>
					<dim>1024</dim>
				</port>
				<port id="1" precision="FP32">
					<dim>1</dim>
					<dim>1</dim>
					<dim>1</dim>
				</port>
			</input>
			<output>
				<port id="2" precision="FP32" names="330">
					<dim>-1</dim>
					<dim>-1</dim>
					<dim>1024</dim>
				</port>
			</output>
		</layer>
		<layer id="213" name="Constant_9215" type="Const" version="opset1">
			<data element_type="f32" shape="1, 1, 1" offset="110492588" size="4" />
			<output>
				<port id="0" precision="FP32">
					<dim>1</dim>
					<dim>1</dim>
					<dim>1</dim>
				</port>
			</output>
		</layer>
		<layer id="214" name="__module.block.1.layer.1.DenseReluDense.act/aten::mul/Multiply_1" type="Multiply" version="opset1">
			<data auto_broadcast="numpy" />
			<input>
				<port id="0" precision="FP32">
					<dim>-1</dim>
					<dim>-1</dim>
					<dim>1024</dim>
				</port>
				<port id="1" precision="FP32">
					<dim>1</dim>
					<dim>1</dim>
					<dim>1</dim>
				</port>
			</input>
			<output>
				<port id="2" precision="FP32" names="331">
					<dim>-1</dim>
					<dim>-1</dim>
					<dim>1024</dim>
				</port>
			</output>
		</layer>
		<layer id="215" name="__module.block.1.layer.1.DenseReluDense.act/aten::add/Add" type="Add" version="opset1">
			<data auto_broadcast="numpy" />
			<input>
				<port id="0" precision="FP32">
					<dim>-1</dim>
					<dim>-1</dim>
					<dim>1024</dim>
				</port>
				<port id="1" precision="FP32">
					<dim>-1</dim>
					<dim>-1</dim>
					<dim>1024</dim>
				</port>
			</input>
			<output>
				<port id="2" precision="FP32" names="332">
					<dim>-1</dim>
					<dim>-1</dim>
					<dim>1024</dim>
				</port>
			</output>
		</layer>
		<layer id="216" name="Constant_9216" type="Const" version="opset1">
			<data element_type="f32" shape="1, 1, 1" offset="110492592" size="4" />
			<output>
				<port id="0" precision="FP32">
					<dim>1</dim>
					<dim>1</dim>
					<dim>1</dim>
				</port>
			</output>
		</layer>
		<layer id="217" name="__module.block.1.layer.1.DenseReluDense.act/aten::mul/Multiply_2" type="Multiply" version="opset1">
			<data auto_broadcast="numpy" />
			<input>
				<port id="0" precision="FP32">
					<dim>-1</dim>
					<dim>-1</dim>
					<dim>1024</dim>
				</port>
				<port id="1" precision="FP32">
					<dim>1</dim>
					<dim>1</dim>
					<dim>1</dim>
				</port>
			</input>
			<output>
				<port id="2" precision="FP32" names="333">
					<dim>-1</dim>
					<dim>-1</dim>
					<dim>1024</dim>
				</port>
			</output>
		</layer>
		<layer id="218" name="__module.block.1.layer.1.DenseReluDense.act/aten::tanh/Tanh" type="Tanh" version="opset1">
			<input>
				<port id="0" precision="FP32">
					<dim>-1</dim>
					<dim>-1</dim>
					<dim>1024</dim>
				</port>
			</input>
			<output>
				<port id="1" precision="FP32" names="334">
					<dim>-1</dim>
					<dim>-1</dim>
					<dim>1024</dim>
				</port>
			</output>
		</layer>
		<layer id="219" name="Constant_9217" type="Const" version="opset1">
			<data element_type="f32" shape="1, 1, 1" offset="103149588" size="4" />
			<output>
				<port id="0" precision="FP32">
					<dim>1</dim>
					<dim>1</dim>
					<dim>1</dim>
				</port>
			</output>
		</layer>
		<layer id="220" name="__module.block.1.layer.1.DenseReluDense.act/aten::add/Add_1" type="Add" version="opset1">
			<data auto_broadcast="numpy" />
			<input>
				<port id="0" precision="FP32">
					<dim>-1</dim>
					<dim>-1</dim>
					<dim>1024</dim>
				</port>
				<port id="1" precision="FP32">
					<dim>1</dim>
					<dim>1</dim>
					<dim>1</dim>
				</port>
			</input>
			<output>
				<port id="2" precision="FP32" names="335">
					<dim>-1</dim>
					<dim>-1</dim>
					<dim>1024</dim>
				</port>
			</output>
		</layer>
		<layer id="221" name="__module.block.1.layer.1.DenseReluDense.act/aten::mul/Multiply_3" type="Multiply" version="opset1">
			<data auto_broadcast="numpy" />
			<input>
				<port id="0" precision="FP32">
					<dim>-1</dim>
					<dim>-1</dim>
					<dim>1024</dim>
				</port>
				<port id="1" precision="FP32">
					<dim>-1</dim>
					<dim>-1</dim>
					<dim>1024</dim>
				</port>
			</input>
			<output>
				<port id="2" precision="FP32" names="336,hidden_gelu.3">
					<dim>-1</dim>
					<dim>-1</dim>
					<dim>1024</dim>
				</port>
			</output>
		</layer>
		<layer id="222" name="self.block.1.layer.1.DenseReluDense.wi_1.weight" type="Const" version="opset1">
			<data element_type="f32" shape="1024, 512" offset="122031028" size="2097152" />
			<output>
				<port id="0" precision="FP32" names="self.block.1.layer.1.DenseReluDense.wi_1.weight">
					<dim>1024</dim>
					<dim>512</dim>
				</port>
			</output>
		</layer>
		<layer id="223" name="__module.block.1.layer.1.DenseReluDense.wi_1/aten::linear/MatMul" type="MatMul" version="opset1">
			<data transpose_a="false" transpose_b="true" />
			<input>
				<port id="0" precision="FP32">
					<dim>-1</dim>
					<dim>-1</dim>
					<dim>512</dim>
				</port>
				<port id="1" precision="FP32">
					<dim>1024</dim>
					<dim>512</dim>
				</port>
			</input>
			<output>
				<port id="2" precision="FP32" names="338,hidden_linear.3">
					<dim>-1</dim>
					<dim>-1</dim>
					<dim>1024</dim>
				</port>
			</output>
		</layer>
		<layer id="224" name="__module.block.1.layer.1.DenseReluDense/aten::mul/Multiply" type="Multiply" version="opset1">
			<data auto_broadcast="numpy" />
			<input>
				<port id="0" precision="FP32">
					<dim>-1</dim>
					<dim>-1</dim>
					<dim>1024</dim>
				</port>
				<port id="1" precision="FP32">
					<dim>-1</dim>
					<dim>-1</dim>
					<dim>1024</dim>
				</port>
			</input>
			<output>
				<port id="2" precision="FP32" names="339,input.23">
					<dim>-1</dim>
					<dim>-1</dim>
					<dim>1024</dim>
				</port>
			</output>
		</layer>
		<layer id="225" name="self.block.1.layer.1.DenseReluDense.wo.weight" type="Const" version="opset1">
			<data element_type="f32" shape="512, 1024" offset="124128180" size="2097152" />
			<output>
				<port id="0" precision="FP32" names="self.block.1.layer.1.DenseReluDense.wo.weight">
					<dim>512</dim>
					<dim>1024</dim>
				</port>
			</output>
		</layer>
		<layer id="226" name="__module.block.1.layer.1.DenseReluDense.wo/aten::linear/MatMul" type="MatMul" version="opset1">
			<data transpose_a="false" transpose_b="true" />
			<input>
				<port id="0" precision="FP32">
					<dim>-1</dim>
					<dim>-1</dim>
					<dim>1024</dim>
				</port>
				<port id="1" precision="FP32">
					<dim>512</dim>
					<dim>1024</dim>
				</port>
			</input>
			<output>
				<port id="2" precision="FP32" names="342,input.25">
					<dim>-1</dim>
					<dim>-1</dim>
					<dim>512</dim>
				</port>
			</output>
		</layer>
		<layer id="227" name="__module.block.1.layer.1/aten::add/Add" type="Add" version="opset1">
			<data auto_broadcast="numpy" />
			<input>
				<port id="0" precision="FP32">
					<dim>-1</dim>
					<dim>-1</dim>
					<dim>512</dim>
				</port>
				<port id="1" precision="FP32">
					<dim>-1</dim>
					<dim>-1</dim>
					<dim>512</dim>
				</port>
			</input>
			<output>
				<port id="2" precision="FP32" names="344,371,381,hidden_states.29,hidden_states.31">
					<dim>-1</dim>
					<dim>-1</dim>
					<dim>512</dim>
				</port>
			</output>
		</layer>
		<layer id="228" name="Constant_9221" type="Const" version="opset1">
			<data element_type="f32" shape="1, 1, 512" offset="126225332" size="2048" />
			<output>
				<port id="0" precision="FP32">
					<dim>1</dim>
					<dim>1</dim>
					<dim>512</dim>
				</port>
			</output>
		</layer>
		<layer id="229" name="Constant_9220" type="Const" version="opset1">
			<data element_type="f32" shape="1, 1, 1" offset="103149588" size="4" />
			<output>
				<port id="0" precision="FP32">
					<dim>1</dim>
					<dim>1</dim>
					<dim>1</dim>
				</port>
			</output>
		</layer>
		<layer id="230" name="Constant_9218" type="Const" version="opset1">
			<data element_type="f32" shape="1, 1, 1" offset="103149592" size="4" />
			<output>
				<port id="0" precision="FP32">
					<dim>1</dim>
					<dim>1</dim>
					<dim>1</dim>
				</port>
			</output>
		</layer>
		<layer id="231" name="__module.block.2.layer.0.layer_norm/aten::pow/Power" type="Power" version="opset1">
			<data auto_broadcast="numpy" />
			<input>
				<port id="0" precision="FP32">
					<dim>-1</dim>
					<dim>-1</dim>
					<dim>512</dim>
				</port>
				<port id="1" precision="FP32">
					<dim>1</dim>
					<dim>1</dim>
					<dim>1</dim>
				</port>
			</input>
			<output>
				<port id="2" precision="FP32" names="372">
					<dim>-1</dim>
					<dim>-1</dim>
					<dim>512</dim>
				</port>
			</output>
		</layer>
		<layer id="232" name="Constant_982" type="Const" version="opset1">
			<data element_type="i64" shape="1" offset="103147520" size="8" />
			<output>
				<port id="0" precision="I64" names="373">
					<dim>1</dim>
				</port>
			</output>
		</layer>
		<layer id="233" name="__module.block.2.layer.0.layer_norm/aten::mean/ReduceMean" type="ReduceMean" version="opset1">
			<data keep_dims="true" />
			<input>
				<port id="0" precision="FP32">
					<dim>-1</dim>
					<dim>-1</dim>
					<dim>512</dim>
				</port>
				<port id="1" precision="I64">
					<dim>1</dim>
				</port>
			</input>
			<output>
				<port id="2" precision="FP32" names="374,variance.9">
					<dim>-1</dim>
					<dim>-1</dim>
					<dim>1</dim>
				</port>
			</output>
		</layer>
		<layer id="234" name="Constant_9219" type="Const" version="opset1">
			<data element_type="f32" shape="1, 1, 1" offset="103149596" size="4" />
			<output>
				<port id="0" precision="FP32">
					<dim>1</dim>
					<dim>1</dim>
					<dim>1</dim>
				</port>
			</output>
		</layer>
		<layer id="235" name="__module.block.2.layer.0.layer_norm/aten::add/Add" type="Add" version="opset1">
			<data auto_broadcast="numpy" />
			<input>
				<port id="0" precision="FP32">
					<dim>-1</dim>
					<dim>-1</dim>
					<dim>1</dim>
				</port>
				<port id="1" precision="FP32">
					<dim>1</dim>
					<dim>1</dim>
					<dim>1</dim>
				</port>
			</input>
			<output>
				<port id="2" precision="FP32" names="375">
					<dim>-1</dim>
					<dim>-1</dim>
					<dim>1</dim>
				</port>
			</output>
		</layer>
		<layer id="236" name="__module.block.2.layer.0.layer_norm/aten::rsqrt/Sqrt" type="Sqrt" version="opset1">
			<input>
				<port id="0" precision="FP32">
					<dim>-1</dim>
					<dim>-1</dim>
					<dim>1</dim>
				</port>
			</input>
			<output>
				<port id="1" precision="FP32">
					<dim>-1</dim>
					<dim>-1</dim>
					<dim>1</dim>
				</port>
			</output>
		</layer>
		<layer id="237" name="__module.block.2.layer.0.layer_norm/aten::rsqrt/Divide" type="Divide" version="opset1">
			<data auto_broadcast="numpy" m_pythondiv="true" />
			<input>
				<port id="0" precision="FP32">
					<dim>1</dim>
					<dim>1</dim>
					<dim>1</dim>
				</port>
				<port id="1" precision="FP32">
					<dim>-1</dim>
					<dim>-1</dim>
					<dim>1</dim>
				</port>
			</input>
			<output>
				<port id="2" precision="FP32" names="376">
					<dim>-1</dim>
					<dim>-1</dim>
					<dim>1</dim>
				</port>
			</output>
		</layer>
		<layer id="238" name="__module.block.2.layer.0.layer_norm/aten::mul/Multiply" type="Multiply" version="opset1">
			<data auto_broadcast="numpy" />
			<input>
				<port id="0" precision="FP32">
					<dim>-1</dim>
					<dim>-1</dim>
					<dim>512</dim>
				</port>
				<port id="1" precision="FP32">
					<dim>-1</dim>
					<dim>-1</dim>
					<dim>1</dim>
				</port>
			</input>
			<output>
				<port id="2" precision="FP32" names="377,hidden_states.33">
					<dim>-1</dim>
					<dim>-1</dim>
					<dim>512</dim>
				</port>
			</output>
		</layer>
		<layer id="239" name="__module.block.2.layer.0.layer_norm/aten::mul/Multiply_1" type="Multiply" version="opset1">
			<data auto_broadcast="numpy" />
			<input>
				<port id="0" precision="FP32">
					<dim>1</dim>
					<dim>1</dim>
					<dim>512</dim>
				</port>
				<port id="1" precision="FP32">
					<dim>-1</dim>
					<dim>-1</dim>
					<dim>512</dim>
				</port>
			</input>
			<output>
				<port id="2" precision="FP32" names="378,380,hidden_states.35">
					<dim>-1</dim>
					<dim>-1</dim>
					<dim>512</dim>
				</port>
			</output>
		</layer>
		<layer id="240" name="self.block.2.layer.0.SelfAttention.q.weight" type="Const" version="opset1">
			<data element_type="f32" shape="384, 512" offset="126227380" size="786432" />
			<output>
				<port id="0" precision="FP32" names="self.block.2.layer.0.SelfAttention.q.weight">
					<dim>384</dim>
					<dim>512</dim>
				</port>
			</output>
		</layer>
		<layer id="241" name="__module.block.2.layer.0.SelfAttention.q/aten::linear/MatMul" type="MatMul" version="opset1">
			<data transpose_a="false" transpose_b="true" />
			<input>
				<port id="0" precision="FP32">
					<dim>-1</dim>
					<dim>-1</dim>
					<dim>512</dim>
				</port>
				<port id="1" precision="FP32">
					<dim>384</dim>
					<dim>512</dim>
				</port>
			</input>
			<output>
				<port id="2" precision="FP32" names="388,states.17">
					<dim>-1</dim>
					<dim>-1</dim>
					<dim>384</dim>
				</port>
			</output>
		</layer>
		<layer id="242" name="__module.block.2.layer.0.SelfAttention/aten::size/ShapeOf" type="ShapeOf" version="opset3">
			<data output_type="i64" />
			<input>
				<port id="0" precision="FP32">
					<dim>-1</dim>
					<dim>-1</dim>
					<dim>512</dim>
				</port>
			</input>
			<output>
				<port id="1" precision="I64">
					<dim>3</dim>
				</port>
			</output>
		</layer>
		<layer id="243" name="Constant_8621" type="Const" version="opset1">
			<data element_type="i64" shape="1" offset="103936032" size="8" />
			<output>
				<port id="0" precision="I64">
					<dim>1</dim>
				</port>
			</output>
		</layer>
		<layer id="244" name="__module.block.2.layer.0.SelfAttention/aten::size/Constant" type="Const" version="opset1">
			<data element_type="i32" shape="" offset="103147536" size="4" />
			<output>
				<port id="0" precision="I32" />
			</output>
		</layer>
		<layer id="245" name="__module.block.2.layer.0.SelfAttention/aten::size/Gather" type="Gather" version="opset8">
			<data batch_dims="0" />
			<input>
				<port id="0" precision="I64">
					<dim>3</dim>
				</port>
				<port id="1" precision="I64">
					<dim>1</dim>
				</port>
				<port id="2" precision="I32" />
			</input>
			<output>
				<port id="3" precision="I64" names="386">
					<dim>1</dim>
				</port>
			</output>
		</layer>
		<layer id="246" name="__module.block.2.layer.0.SelfAttention/prim::ListConstruct/Reshape_0" type="Const" version="opset1">
			<data element_type="i64" shape="1" offset="103147520" size="8" />
			<output>
				<port id="0" precision="I64">
					<dim>1</dim>
				</port>
			</output>
		</layer>
		<layer id="247" name="__module.block.2.layer.0.SelfAttention/prim::ListConstruct/Reshape_1" type="Const" version="opset1">
			<data element_type="i64" shape="1" offset="103936040" size="8" />
			<output>
				<port id="0" precision="I64">
					<dim>1</dim>
				</port>
			</output>
		</layer>
		<layer id="248" name="__module.block.2.layer.0.SelfAttention/prim::ListConstruct/Reshape_2" type="Const" version="opset1">
			<data element_type="i64" shape="1" offset="103936048" size="8" />
			<output>
				<port id="0" precision="I64">
					<dim>1</dim>
				</port>
			</output>
		</layer>
		<layer id="249" name="__module.block.2.layer.0.SelfAttention/prim::ListConstruct/Concat" type="Concat" version="opset1">
			<data axis="0" />
			<input>
				<port id="0" precision="I64">
					<dim>1</dim>
				</port>
				<port id="1" precision="I64">
					<dim>1</dim>
				</port>
				<port id="2" precision="I64">
					<dim>1</dim>
				</port>
				<port id="3" precision="I64">
					<dim>1</dim>
				</port>
			</input>
			<output>
				<port id="4" precision="I64" names="389,394,399">
					<dim>4</dim>
				</port>
			</output>
		</layer>
		<layer id="250" name="__module.block.2.layer.0.SelfAttention/aten::view/Reshape" type="Reshape" version="opset1">
			<data special_zero="false" />
			<input>
				<port id="0" precision="FP32">
					<dim>-1</dim>
					<dim>-1</dim>
					<dim>384</dim>
				</port>
				<port id="1" precision="I64">
					<dim>4</dim>
				</port>
			</input>
			<output>
				<port id="2" precision="FP32" names="390">
					<dim>-1</dim>
					<dim>-1</dim>
					<dim>6</dim>
					<dim>64</dim>
				</port>
			</output>
		</layer>
		<layer id="251" name="__module.block.2.layer.0.SelfAttention/aten::transpose/ScatterElementsUpdate" type="Const" version="opset1">
			<data element_type="i32" shape="4" offset="103936056" size="16" />
			<output>
				<port id="0" precision="I32">
					<dim>4</dim>
				</port>
			</output>
		</layer>
		<layer id="252" name="__module.block.2.layer.0.SelfAttention/aten::transpose/Transpose" type="Transpose" version="opset1">
			<input>
				<port id="0" precision="FP32">
					<dim>-1</dim>
					<dim>-1</dim>
					<dim>6</dim>
					<dim>64</dim>
				</port>
				<port id="1" precision="I32">
					<dim>4</dim>
				</port>
			</input>
			<output>
				<port id="2" precision="FP32" names="391">
					<dim>-1</dim>
					<dim>6</dim>
					<dim>-1</dim>
					<dim>64</dim>
				</port>
			</output>
		</layer>
		<layer id="253" name="self.block.2.layer.0.SelfAttention.k.weight" type="Const" version="opset1">
			<data element_type="f32" shape="384, 512" offset="127013812" size="786432" />
			<output>
				<port id="0" precision="FP32" names="self.block.2.layer.0.SelfAttention.k.weight">
					<dim>384</dim>
					<dim>512</dim>
				</port>
			</output>
		</layer>
		<layer id="254" name="__module.block.2.layer.0.SelfAttention.k/aten::linear/MatMul" type="MatMul" version="opset1">
			<data transpose_a="false" transpose_b="true" />
			<input>
				<port id="0" precision="FP32">
					<dim>-1</dim>
					<dim>-1</dim>
					<dim>512</dim>
				</port>
				<port id="1" precision="FP32">
					<dim>384</dim>
					<dim>512</dim>
				</port>
			</input>
			<output>
				<port id="2" precision="FP32" names="393,states.19">
					<dim>-1</dim>
					<dim>-1</dim>
					<dim>384</dim>
				</port>
			</output>
		</layer>
		<layer id="255" name="__module.block.2.layer.0.SelfAttention/aten::view/Reshape_1" type="Reshape" version="opset1">
			<data special_zero="false" />
			<input>
				<port id="0" precision="FP32">
					<dim>-1</dim>
					<dim>-1</dim>
					<dim>384</dim>
				</port>
				<port id="1" precision="I64">
					<dim>4</dim>
				</port>
			</input>
			<output>
				<port id="2" precision="FP32" names="395">
					<dim>-1</dim>
					<dim>-1</dim>
					<dim>6</dim>
					<dim>64</dim>
				</port>
			</output>
		</layer>
		<layer id="256" name="Constant_8690" type="Const" version="opset1">
			<data element_type="i32" shape="4" offset="104722504" size="16" />
			<output>
				<port id="0" precision="I32">
					<dim>4</dim>
				</port>
			</output>
		</layer>
		<layer id="257" name="__module.block.2.layer.0.SelfAttention/aten::transpose/Transpose_2" type="Transpose" version="opset1">
			<input>
				<port id="0" precision="FP32">
					<dim>-1</dim>
					<dim>-1</dim>
					<dim>6</dim>
					<dim>64</dim>
				</port>
				<port id="1" precision="I32">
					<dim>4</dim>
				</port>
			</input>
			<output>
				<port id="2" precision="FP32" names="402">
					<dim>-1</dim>
					<dim>6</dim>
					<dim>64</dim>
					<dim>-1</dim>
				</port>
			</output>
		</layer>
		<layer id="258" name="__module.block.2.layer.0.SelfAttention/aten::matmul/MatMul" type="MatMul" version="opset1">
			<data transpose_a="false" transpose_b="false" />
			<input>
				<port id="0" precision="FP32">
					<dim>-1</dim>
					<dim>6</dim>
					<dim>-1</dim>
					<dim>64</dim>
				</port>
				<port id="1" precision="FP32">
					<dim>-1</dim>
					<dim>6</dim>
					<dim>64</dim>
					<dim>-1</dim>
				</port>
			</input>
			<output>
				<port id="2" precision="FP32" names="403_1">
					<dim>-1</dim>
					<dim>6</dim>
					<dim>-1</dim>
					<dim>-1</dim>
				</port>
			</output>
		</layer>
		<layer id="259" name="__module.block.2.layer.0.SelfAttention/aten::add_/Add" type="Add" version="opset1">
			<data auto_broadcast="numpy" />
			<input>
				<port id="0" precision="FP32">
					<dim>-1</dim>
					<dim>6</dim>
					<dim>-1</dim>
					<dim>-1</dim>
				</port>
				<port id="1" precision="FP32">
					<dim>-1</dim>
					<dim>6</dim>
					<dim>-1</dim>
					<dim>-1</dim>
				</port>
			</input>
			<output>
				<port id="2" precision="FP32" names="403,405,input.27,scores.9">
					<dim>-1</dim>
					<dim>6</dim>
					<dim>-1</dim>
					<dim>-1</dim>
				</port>
			</output>
		</layer>
		<layer id="260" name="__module.block.2.layer.0.SelfAttention/aten::softmax/Softmax" type="SoftMax" version="opset8">
			<data axis="-1" />
			<input>
				<port id="0" precision="FP32">
					<dim>-1</dim>
					<dim>6</dim>
					<dim>-1</dim>
					<dim>-1</dim>
				</port>
			</input>
			<output>
				<port id="1" precision="FP32" names="406,407,input.29">
					<dim>-1</dim>
					<dim>6</dim>
					<dim>-1</dim>
					<dim>-1</dim>
				</port>
			</output>
		</layer>
		<layer id="261" name="self.block.2.layer.0.SelfAttention.v.weight" type="Const" version="opset1">
			<data element_type="f32" shape="384, 512" offset="127800244" size="786432" />
			<output>
				<port id="0" precision="FP32" names="self.block.2.layer.0.SelfAttention.v.weight">
					<dim>384</dim>
					<dim>512</dim>
				</port>
			</output>
		</layer>
		<layer id="262" name="__module.block.2.layer.0.SelfAttention.v/aten::linear/MatMul" type="MatMul" version="opset1">
			<data transpose_a="false" transpose_b="true" />
			<input>
				<port id="0" precision="FP32">
					<dim>-1</dim>
					<dim>-1</dim>
					<dim>512</dim>
				</port>
				<port id="1" precision="FP32">
					<dim>384</dim>
					<dim>512</dim>
				</port>
			</input>
			<output>
				<port id="2" precision="FP32" names="398,states.21">
					<dim>-1</dim>
					<dim>-1</dim>
					<dim>384</dim>
				</port>
			</output>
		</layer>
		<layer id="263" name="__module.block.2.layer.0.SelfAttention/aten::view/Reshape_2" type="Reshape" version="opset1">
			<data special_zero="false" />
			<input>
				<port id="0" precision="FP32">
					<dim>-1</dim>
					<dim>-1</dim>
					<dim>384</dim>
				</port>
				<port id="1" precision="I64">
					<dim>4</dim>
				</port>
			</input>
			<output>
				<port id="2" precision="FP32" names="400">
					<dim>-1</dim>
					<dim>-1</dim>
					<dim>6</dim>
					<dim>64</dim>
				</port>
			</output>
		</layer>
		<layer id="264" name="__module.block.2.layer.0.SelfAttention/aten::transpose/ScatterElementsUpdate_3" type="Const" version="opset1">
			<data element_type="i32" shape="4" offset="103936056" size="16" />
			<output>
				<port id="0" precision="I32">
					<dim>4</dim>
				</port>
			</output>
		</layer>
		<layer id="265" name="__module.block.2.layer.0.SelfAttention/aten::transpose/Transpose_3" type="Transpose" version="opset1">
			<input>
				<port id="0" precision="FP32">
					<dim>-1</dim>
					<dim>-1</dim>
					<dim>6</dim>
					<dim>64</dim>
				</port>
				<port id="1" precision="I32">
					<dim>4</dim>
				</port>
			</input>
			<output>
				<port id="2" precision="FP32" names="401">
					<dim>-1</dim>
					<dim>6</dim>
					<dim>-1</dim>
					<dim>64</dim>
				</port>
			</output>
		</layer>
		<layer id="266" name="__module.block.2.layer.0.SelfAttention/aten::matmul/MatMul_1" type="MatMul" version="opset1">
			<data transpose_a="false" transpose_b="false" />
			<input>
				<port id="0" precision="FP32">
					<dim>-1</dim>
					<dim>6</dim>
					<dim>-1</dim>
					<dim>-1</dim>
				</port>
				<port id="1" precision="FP32">
					<dim>-1</dim>
					<dim>6</dim>
					<dim>-1</dim>
					<dim>64</dim>
				</port>
			</input>
			<output>
				<port id="2" precision="FP32" names="409,states.23">
					<dim>-1</dim>
					<dim>6</dim>
					<dim>-1</dim>
					<dim>64</dim>
				</port>
			</output>
		</layer>
		<layer id="267" name="__module.block.2.layer.0.SelfAttention/aten::transpose/ScatterElementsUpdate_4" type="Const" version="opset1">
			<data element_type="i32" shape="4" offset="103936056" size="16" />
			<output>
				<port id="0" precision="I32">
					<dim>4</dim>
				</port>
			</output>
		</layer>
		<layer id="268" name="__module.block.2.layer.0.SelfAttention/aten::transpose/Transpose_4" type="Transpose" version="opset1">
			<input>
				<port id="0" precision="FP32">
					<dim>-1</dim>
					<dim>6</dim>
					<dim>-1</dim>
					<dim>64</dim>
				</port>
				<port id="1" precision="I32">
					<dim>4</dim>
				</port>
			</input>
			<output>
				<port id="2" precision="FP32" names="410">
					<dim>-1</dim>
					<dim>-1</dim>
					<dim>6</dim>
					<dim>64</dim>
				</port>
			</output>
		</layer>
		<layer id="269" name="__module.block.2.layer.0.SelfAttention/prim::ListConstruct/Reshape_1_3" type="Const" version="opset1">
			<data element_type="i64" shape="1" offset="105509792" size="8" />
			<output>
				<port id="0" precision="I64">
					<dim>1</dim>
				</port>
			</output>
		</layer>
		<layer id="270" name="__module.block.2.layer.0.SelfAttention/prim::ListConstruct/Concat_3" type="Concat" version="opset1">
			<data axis="0" />
			<input>
				<port id="0" precision="I64">
					<dim>1</dim>
				</port>
				<port id="1" precision="I64">
					<dim>1</dim>
				</port>
				<port id="2" precision="I64">
					<dim>1</dim>
				</port>
			</input>
			<output>
				<port id="3" precision="I64" names="412">
					<dim>3</dim>
				</port>
			</output>
		</layer>
		<layer id="271" name="__module.block.2.layer.0.SelfAttention/aten::view/Reshape_3" type="Reshape" version="opset1">
			<data special_zero="false" />
			<input>
				<port id="0" precision="FP32">
					<dim>-1</dim>
					<dim>-1</dim>
					<dim>6</dim>
					<dim>64</dim>
				</port>
				<port id="1" precision="I64">
					<dim>3</dim>
				</port>
			</input>
			<output>
				<port id="2" precision="FP32" names="413">
					<dim>-1</dim>
					<dim>-1</dim>
					<dim>384</dim>
				</port>
			</output>
		</layer>
		<layer id="272" name="self.block.2.layer.0.SelfAttention.o.weight" type="Const" version="opset1">
			<data element_type="f32" shape="512, 384" offset="128586676" size="786432" />
			<output>
				<port id="0" precision="FP32" names="self.block.2.layer.0.SelfAttention.o.weight">
					<dim>512</dim>
					<dim>384</dim>
				</port>
			</output>
		</layer>
		<layer id="273" name="__module.block.2.layer.0.SelfAttention.o/aten::linear/MatMul" type="MatMul" version="opset1">
			<data transpose_a="false" transpose_b="true" />
			<input>
				<port id="0" precision="FP32">
					<dim>-1</dim>
					<dim>-1</dim>
					<dim>384</dim>
				</port>
				<port id="1" precision="FP32">
					<dim>512</dim>
					<dim>384</dim>
				</port>
			</input>
			<output>
				<port id="2" precision="FP32" names="415,input.31">
					<dim>-1</dim>
					<dim>-1</dim>
					<dim>512</dim>
				</port>
			</output>
		</layer>
		<layer id="274" name="__module.block.2.layer.0/aten::add/Add" type="Add" version="opset1">
			<data auto_broadcast="numpy" />
			<input>
				<port id="0" precision="FP32">
					<dim>-1</dim>
					<dim>-1</dim>
					<dim>512</dim>
				</port>
				<port id="1" precision="FP32">
					<dim>-1</dim>
					<dim>-1</dim>
					<dim>512</dim>
				</port>
			</input>
			<output>
				<port id="2" precision="FP32" names="417,422,432,hidden_states.37,hidden_states.39">
					<dim>-1</dim>
					<dim>-1</dim>
					<dim>512</dim>
				</port>
			</output>
		</layer>
		<layer id="275" name="Constant_9225" type="Const" version="opset1">
			<data element_type="f32" shape="1, 1, 512" offset="129373108" size="2048" />
			<output>
				<port id="0" precision="FP32">
					<dim>1</dim>
					<dim>1</dim>
					<dim>512</dim>
				</port>
			</output>
		</layer>
		<layer id="276" name="Constant_9224" type="Const" version="opset1">
			<data element_type="f32" shape="1, 1, 1" offset="103149588" size="4" />
			<output>
				<port id="0" precision="FP32">
					<dim>1</dim>
					<dim>1</dim>
					<dim>1</dim>
				</port>
			</output>
		</layer>
		<layer id="277" name="Constant_9222" type="Const" version="opset1">
			<data element_type="f32" shape="1, 1, 1" offset="103149592" size="4" />
			<output>
				<port id="0" precision="FP32">
					<dim>1</dim>
					<dim>1</dim>
					<dim>1</dim>
				</port>
			</output>
		</layer>
		<layer id="278" name="__module.block.2.layer.1.layer_norm/aten::pow/Power" type="Power" version="opset1">
			<data auto_broadcast="numpy" />
			<input>
				<port id="0" precision="FP32">
					<dim>-1</dim>
					<dim>-1</dim>
					<dim>512</dim>
				</port>
				<port id="1" precision="FP32">
					<dim>1</dim>
					<dim>1</dim>
					<dim>1</dim>
				</port>
			</input>
			<output>
				<port id="2" precision="FP32" names="423">
					<dim>-1</dim>
					<dim>-1</dim>
					<dim>512</dim>
				</port>
			</output>
		</layer>
		<layer id="279" name="Constant_1205" type="Const" version="opset1">
			<data element_type="i64" shape="1" offset="103147520" size="8" />
			<output>
				<port id="0" precision="I64" names="424">
					<dim>1</dim>
				</port>
			</output>
		</layer>
		<layer id="280" name="__module.block.2.layer.1.layer_norm/aten::mean/ReduceMean" type="ReduceMean" version="opset1">
			<data keep_dims="true" />
			<input>
				<port id="0" precision="FP32">
					<dim>-1</dim>
					<dim>-1</dim>
					<dim>512</dim>
				</port>
				<port id="1" precision="I64">
					<dim>1</dim>
				</port>
			</input>
			<output>
				<port id="2" precision="FP32" names="425,variance.11">
					<dim>-1</dim>
					<dim>-1</dim>
					<dim>1</dim>
				</port>
			</output>
		</layer>
		<layer id="281" name="Constant_9223" type="Const" version="opset1">
			<data element_type="f32" shape="1, 1, 1" offset="103149596" size="4" />
			<output>
				<port id="0" precision="FP32">
					<dim>1</dim>
					<dim>1</dim>
					<dim>1</dim>
				</port>
			</output>
		</layer>
		<layer id="282" name="__module.block.2.layer.1.layer_norm/aten::add/Add" type="Add" version="opset1">
			<data auto_broadcast="numpy" />
			<input>
				<port id="0" precision="FP32">
					<dim>-1</dim>
					<dim>-1</dim>
					<dim>1</dim>
				</port>
				<port id="1" precision="FP32">
					<dim>1</dim>
					<dim>1</dim>
					<dim>1</dim>
				</port>
			</input>
			<output>
				<port id="2" precision="FP32" names="426">
					<dim>-1</dim>
					<dim>-1</dim>
					<dim>1</dim>
				</port>
			</output>
		</layer>
		<layer id="283" name="__module.block.2.layer.1.layer_norm/aten::rsqrt/Sqrt" type="Sqrt" version="opset1">
			<input>
				<port id="0" precision="FP32">
					<dim>-1</dim>
					<dim>-1</dim>
					<dim>1</dim>
				</port>
			</input>
			<output>
				<port id="1" precision="FP32">
					<dim>-1</dim>
					<dim>-1</dim>
					<dim>1</dim>
				</port>
			</output>
		</layer>
		<layer id="284" name="__module.block.2.layer.1.layer_norm/aten::rsqrt/Divide" type="Divide" version="opset1">
			<data auto_broadcast="numpy" m_pythondiv="true" />
			<input>
				<port id="0" precision="FP32">
					<dim>1</dim>
					<dim>1</dim>
					<dim>1</dim>
				</port>
				<port id="1" precision="FP32">
					<dim>-1</dim>
					<dim>-1</dim>
					<dim>1</dim>
				</port>
			</input>
			<output>
				<port id="2" precision="FP32" names="427">
					<dim>-1</dim>
					<dim>-1</dim>
					<dim>1</dim>
				</port>
			</output>
		</layer>
		<layer id="285" name="__module.block.2.layer.1.layer_norm/aten::mul/Multiply" type="Multiply" version="opset1">
			<data auto_broadcast="numpy" />
			<input>
				<port id="0" precision="FP32">
					<dim>-1</dim>
					<dim>-1</dim>
					<dim>512</dim>
				</port>
				<port id="1" precision="FP32">
					<dim>-1</dim>
					<dim>-1</dim>
					<dim>1</dim>
				</port>
			</input>
			<output>
				<port id="2" precision="FP32" names="428,hidden_states.41">
					<dim>-1</dim>
					<dim>-1</dim>
					<dim>512</dim>
				</port>
			</output>
		</layer>
		<layer id="286" name="__module.block.2.layer.1.layer_norm/aten::mul/Multiply_1" type="Multiply" version="opset1">
			<data auto_broadcast="numpy" />
			<input>
				<port id="0" precision="FP32">
					<dim>1</dim>
					<dim>1</dim>
					<dim>512</dim>
				</port>
				<port id="1" precision="FP32">
					<dim>-1</dim>
					<dim>-1</dim>
					<dim>512</dim>
				</port>
			</input>
			<output>
				<port id="2" precision="FP32" names="429,431">
					<dim>-1</dim>
					<dim>-1</dim>
					<dim>512</dim>
				</port>
			</output>
		</layer>
		<layer id="287" name="Constant_9086" type="Const" version="opset1">
			<data element_type="f32" shape="1024, 512" offset="129375156" size="2097152" />
			<output>
				<port id="0" precision="FP32">
					<dim>1024</dim>
					<dim>512</dim>
				</port>
			</output>
		</layer>
		<layer id="288" name="__module.block.2.layer.1.DenseReluDense.act/aten::mul/Multiply" type="MatMul" version="opset1">
			<data transpose_a="false" transpose_b="true" />
			<input>
				<port id="0" precision="FP32">
					<dim>-1</dim>
					<dim>-1</dim>
					<dim>512</dim>
				</port>
				<port id="1" precision="FP32">
					<dim>1024</dim>
					<dim>512</dim>
				</port>
			</input>
			<output>
				<port id="2" precision="FP32" names="440">
					<dim>-1</dim>
					<dim>-1</dim>
					<dim>1024</dim>
				</port>
			</output>
		</layer>
		<layer id="289" name="self.block.2.layer.1.DenseReluDense.wi_0.weight" type="Const" version="opset1">
			<data element_type="f32" shape="1024, 512" offset="131472308" size="2097152" />
			<output>
				<port id="0" precision="FP32" names="self.block.2.layer.1.DenseReluDense.wi_0.weight">
					<dim>1024</dim>
					<dim>512</dim>
				</port>
			</output>
		</layer>
		<layer id="290" name="__module.block.2.layer.1.DenseReluDense.wi_0/aten::linear/MatMul" type="MatMul" version="opset1">
			<data transpose_a="false" transpose_b="true" />
			<input>
				<port id="0" precision="FP32">
					<dim>-1</dim>
					<dim>-1</dim>
					<dim>512</dim>
				</port>
				<port id="1" precision="FP32">
					<dim>1024</dim>
					<dim>512</dim>
				</port>
			</input>
			<output>
				<port id="2" precision="FP32" names="439,input.33">
					<dim>-1</dim>
					<dim>-1</dim>
					<dim>1024</dim>
				</port>
			</output>
		</layer>
		<layer id="291" name="Constant_9226" type="Const" version="opset1">
			<data element_type="f32" shape="1, 1, 1" offset="110492584" size="4" />
			<output>
				<port id="0" precision="FP32">
					<dim>1</dim>
					<dim>1</dim>
					<dim>1</dim>
				</port>
			</output>
		</layer>
		<layer id="292" name="__module.block.2.layer.1.DenseReluDense.act/aten::pow/Power" type="Power" version="opset1">
			<data auto_broadcast="numpy" />
			<input>
				<port id="0" precision="FP32">
					<dim>-1</dim>
					<dim>-1</dim>
					<dim>1024</dim>
				</port>
				<port id="1" precision="FP32">
					<dim>1</dim>
					<dim>1</dim>
					<dim>1</dim>
				</port>
			</input>
			<output>
				<port id="2" precision="FP32" names="441">
					<dim>-1</dim>
					<dim>-1</dim>
					<dim>1024</dim>
				</port>
			</output>
		</layer>
		<layer id="293" name="Constant_9227" type="Const" version="opset1">
			<data element_type="f32" shape="1, 1, 1" offset="110492588" size="4" />
			<output>
				<port id="0" precision="FP32">
					<dim>1</dim>
					<dim>1</dim>
					<dim>1</dim>
				</port>
			</output>
		</layer>
		<layer id="294" name="__module.block.2.layer.1.DenseReluDense.act/aten::mul/Multiply_1" type="Multiply" version="opset1">
			<data auto_broadcast="numpy" />
			<input>
				<port id="0" precision="FP32">
					<dim>-1</dim>
					<dim>-1</dim>
					<dim>1024</dim>
				</port>
				<port id="1" precision="FP32">
					<dim>1</dim>
					<dim>1</dim>
					<dim>1</dim>
				</port>
			</input>
			<output>
				<port id="2" precision="FP32" names="442">
					<dim>-1</dim>
					<dim>-1</dim>
					<dim>1024</dim>
				</port>
			</output>
		</layer>
		<layer id="295" name="__module.block.2.layer.1.DenseReluDense.act/aten::add/Add" type="Add" version="opset1">
			<data auto_broadcast="numpy" />
			<input>
				<port id="0" precision="FP32">
					<dim>-1</dim>
					<dim>-1</dim>
					<dim>1024</dim>
				</port>
				<port id="1" precision="FP32">
					<dim>-1</dim>
					<dim>-1</dim>
					<dim>1024</dim>
				</port>
			</input>
			<output>
				<port id="2" precision="FP32" names="443">
					<dim>-1</dim>
					<dim>-1</dim>
					<dim>1024</dim>
				</port>
			</output>
		</layer>
		<layer id="296" name="Constant_9228" type="Const" version="opset1">
			<data element_type="f32" shape="1, 1, 1" offset="110492592" size="4" />
			<output>
				<port id="0" precision="FP32">
					<dim>1</dim>
					<dim>1</dim>
					<dim>1</dim>
				</port>
			</output>
		</layer>
		<layer id="297" name="__module.block.2.layer.1.DenseReluDense.act/aten::mul/Multiply_2" type="Multiply" version="opset1">
			<data auto_broadcast="numpy" />
			<input>
				<port id="0" precision="FP32">
					<dim>-1</dim>
					<dim>-1</dim>
					<dim>1024</dim>
				</port>
				<port id="1" precision="FP32">
					<dim>1</dim>
					<dim>1</dim>
					<dim>1</dim>
				</port>
			</input>
			<output>
				<port id="2" precision="FP32" names="444">
					<dim>-1</dim>
					<dim>-1</dim>
					<dim>1024</dim>
				</port>
			</output>
		</layer>
		<layer id="298" name="__module.block.2.layer.1.DenseReluDense.act/aten::tanh/Tanh" type="Tanh" version="opset1">
			<input>
				<port id="0" precision="FP32">
					<dim>-1</dim>
					<dim>-1</dim>
					<dim>1024</dim>
				</port>
			</input>
			<output>
				<port id="1" precision="FP32" names="445">
					<dim>-1</dim>
					<dim>-1</dim>
					<dim>1024</dim>
				</port>
			</output>
		</layer>
		<layer id="299" name="Constant_9229" type="Const" version="opset1">
			<data element_type="f32" shape="1, 1, 1" offset="103149588" size="4" />
			<output>
				<port id="0" precision="FP32">
					<dim>1</dim>
					<dim>1</dim>
					<dim>1</dim>
				</port>
			</output>
		</layer>
		<layer id="300" name="__module.block.2.layer.1.DenseReluDense.act/aten::add/Add_1" type="Add" version="opset1">
			<data auto_broadcast="numpy" />
			<input>
				<port id="0" precision="FP32">
					<dim>-1</dim>
					<dim>-1</dim>
					<dim>1024</dim>
				</port>
				<port id="1" precision="FP32">
					<dim>1</dim>
					<dim>1</dim>
					<dim>1</dim>
				</port>
			</input>
			<output>
				<port id="2" precision="FP32" names="446">
					<dim>-1</dim>
					<dim>-1</dim>
					<dim>1024</dim>
				</port>
			</output>
		</layer>
		<layer id="301" name="__module.block.2.layer.1.DenseReluDense.act/aten::mul/Multiply_3" type="Multiply" version="opset1">
			<data auto_broadcast="numpy" />
			<input>
				<port id="0" precision="FP32">
					<dim>-1</dim>
					<dim>-1</dim>
					<dim>1024</dim>
				</port>
				<port id="1" precision="FP32">
					<dim>-1</dim>
					<dim>-1</dim>
					<dim>1024</dim>
				</port>
			</input>
			<output>
				<port id="2" precision="FP32" names="447,hidden_gelu.5">
					<dim>-1</dim>
					<dim>-1</dim>
					<dim>1024</dim>
				</port>
			</output>
		</layer>
		<layer id="302" name="self.block.2.layer.1.DenseReluDense.wi_1.weight" type="Const" version="opset1">
			<data element_type="f32" shape="1024, 512" offset="133569460" size="2097152" />
			<output>
				<port id="0" precision="FP32" names="self.block.2.layer.1.DenseReluDense.wi_1.weight">
					<dim>1024</dim>
					<dim>512</dim>
				</port>
			</output>
		</layer>
		<layer id="303" name="__module.block.2.layer.1.DenseReluDense.wi_1/aten::linear/MatMul" type="MatMul" version="opset1">
			<data transpose_a="false" transpose_b="true" />
			<input>
				<port id="0" precision="FP32">
					<dim>-1</dim>
					<dim>-1</dim>
					<dim>512</dim>
				</port>
				<port id="1" precision="FP32">
					<dim>1024</dim>
					<dim>512</dim>
				</port>
			</input>
			<output>
				<port id="2" precision="FP32" names="449,hidden_linear.5">
					<dim>-1</dim>
					<dim>-1</dim>
					<dim>1024</dim>
				</port>
			</output>
		</layer>
		<layer id="304" name="__module.block.2.layer.1.DenseReluDense/aten::mul/Multiply" type="Multiply" version="opset1">
			<data auto_broadcast="numpy" />
			<input>
				<port id="0" precision="FP32">
					<dim>-1</dim>
					<dim>-1</dim>
					<dim>1024</dim>
				</port>
				<port id="1" precision="FP32">
					<dim>-1</dim>
					<dim>-1</dim>
					<dim>1024</dim>
				</port>
			</input>
			<output>
				<port id="2" precision="FP32" names="450,input.35">
					<dim>-1</dim>
					<dim>-1</dim>
					<dim>1024</dim>
				</port>
			</output>
		</layer>
		<layer id="305" name="self.block.2.layer.1.DenseReluDense.wo.weight" type="Const" version="opset1">
			<data element_type="f32" shape="512, 1024" offset="135666612" size="2097152" />
			<output>
				<port id="0" precision="FP32" names="self.block.2.layer.1.DenseReluDense.wo.weight">
					<dim>512</dim>
					<dim>1024</dim>
				</port>
			</output>
		</layer>
		<layer id="306" name="__module.block.2.layer.1.DenseReluDense.wo/aten::linear/MatMul" type="MatMul" version="opset1">
			<data transpose_a="false" transpose_b="true" />
			<input>
				<port id="0" precision="FP32">
					<dim>-1</dim>
					<dim>-1</dim>
					<dim>1024</dim>
				</port>
				<port id="1" precision="FP32">
					<dim>512</dim>
					<dim>1024</dim>
				</port>
			</input>
			<output>
				<port id="2" precision="FP32" names="453,input.37">
					<dim>-1</dim>
					<dim>-1</dim>
					<dim>512</dim>
				</port>
			</output>
		</layer>
		<layer id="307" name="__module.block.2.layer.1/aten::add/Add" type="Add" version="opset1">
			<data auto_broadcast="numpy" />
			<input>
				<port id="0" precision="FP32">
					<dim>-1</dim>
					<dim>-1</dim>
					<dim>512</dim>
				</port>
				<port id="1" precision="FP32">
					<dim>-1</dim>
					<dim>-1</dim>
					<dim>512</dim>
				</port>
			</input>
			<output>
				<port id="2" precision="FP32" names="455,482,492,hidden_states.43,hidden_states.45">
					<dim>-1</dim>
					<dim>-1</dim>
					<dim>512</dim>
				</port>
			</output>
		</layer>
		<layer id="308" name="Constant_9233" type="Const" version="opset1">
			<data element_type="f32" shape="1, 1, 512" offset="137763764" size="2048" />
			<output>
				<port id="0" precision="FP32">
					<dim>1</dim>
					<dim>1</dim>
					<dim>512</dim>
				</port>
			</output>
		</layer>
		<layer id="309" name="Constant_9232" type="Const" version="opset1">
			<data element_type="f32" shape="1, 1, 1" offset="103149588" size="4" />
			<output>
				<port id="0" precision="FP32">
					<dim>1</dim>
					<dim>1</dim>
					<dim>1</dim>
				</port>
			</output>
		</layer>
		<layer id="310" name="Constant_9230" type="Const" version="opset1">
			<data element_type="f32" shape="1, 1, 1" offset="103149592" size="4" />
			<output>
				<port id="0" precision="FP32">
					<dim>1</dim>
					<dim>1</dim>
					<dim>1</dim>
				</port>
			</output>
		</layer>
		<layer id="311" name="__module.block.3.layer.0.layer_norm/aten::pow/Power" type="Power" version="opset1">
			<data auto_broadcast="numpy" />
			<input>
				<port id="0" precision="FP32">
					<dim>-1</dim>
					<dim>-1</dim>
					<dim>512</dim>
				</port>
				<port id="1" precision="FP32">
					<dim>1</dim>
					<dim>1</dim>
					<dim>1</dim>
				</port>
			</input>
			<output>
				<port id="2" precision="FP32" names="483">
					<dim>-1</dim>
					<dim>-1</dim>
					<dim>512</dim>
				</port>
			</output>
		</layer>
		<layer id="312" name="Constant_1336" type="Const" version="opset1">
			<data element_type="i64" shape="1" offset="103147520" size="8" />
			<output>
				<port id="0" precision="I64" names="484">
					<dim>1</dim>
				</port>
			</output>
		</layer>
		<layer id="313" name="__module.block.3.layer.0.layer_norm/aten::mean/ReduceMean" type="ReduceMean" version="opset1">
			<data keep_dims="true" />
			<input>
				<port id="0" precision="FP32">
					<dim>-1</dim>
					<dim>-1</dim>
					<dim>512</dim>
				</port>
				<port id="1" precision="I64">
					<dim>1</dim>
				</port>
			</input>
			<output>
				<port id="2" precision="FP32" names="485,variance.13">
					<dim>-1</dim>
					<dim>-1</dim>
					<dim>1</dim>
				</port>
			</output>
		</layer>
		<layer id="314" name="Constant_9231" type="Const" version="opset1">
			<data element_type="f32" shape="1, 1, 1" offset="103149596" size="4" />
			<output>
				<port id="0" precision="FP32">
					<dim>1</dim>
					<dim>1</dim>
					<dim>1</dim>
				</port>
			</output>
		</layer>
		<layer id="315" name="__module.block.3.layer.0.layer_norm/aten::add/Add" type="Add" version="opset1">
			<data auto_broadcast="numpy" />
			<input>
				<port id="0" precision="FP32">
					<dim>-1</dim>
					<dim>-1</dim>
					<dim>1</dim>
				</port>
				<port id="1" precision="FP32">
					<dim>1</dim>
					<dim>1</dim>
					<dim>1</dim>
				</port>
			</input>
			<output>
				<port id="2" precision="FP32" names="486">
					<dim>-1</dim>
					<dim>-1</dim>
					<dim>1</dim>
				</port>
			</output>
		</layer>
		<layer id="316" name="__module.block.3.layer.0.layer_norm/aten::rsqrt/Sqrt" type="Sqrt" version="opset1">
			<input>
				<port id="0" precision="FP32">
					<dim>-1</dim>
					<dim>-1</dim>
					<dim>1</dim>
				</port>
			</input>
			<output>
				<port id="1" precision="FP32">
					<dim>-1</dim>
					<dim>-1</dim>
					<dim>1</dim>
				</port>
			</output>
		</layer>
		<layer id="317" name="__module.block.3.layer.0.layer_norm/aten::rsqrt/Divide" type="Divide" version="opset1">
			<data auto_broadcast="numpy" m_pythondiv="true" />
			<input>
				<port id="0" precision="FP32">
					<dim>1</dim>
					<dim>1</dim>
					<dim>1</dim>
				</port>
				<port id="1" precision="FP32">
					<dim>-1</dim>
					<dim>-1</dim>
					<dim>1</dim>
				</port>
			</input>
			<output>
				<port id="2" precision="FP32" names="487">
					<dim>-1</dim>
					<dim>-1</dim>
					<dim>1</dim>
				</port>
			</output>
		</layer>
		<layer id="318" name="__module.block.3.layer.0.layer_norm/aten::mul/Multiply" type="Multiply" version="opset1">
			<data auto_broadcast="numpy" />
			<input>
				<port id="0" precision="FP32">
					<dim>-1</dim>
					<dim>-1</dim>
					<dim>512</dim>
				</port>
				<port id="1" precision="FP32">
					<dim>-1</dim>
					<dim>-1</dim>
					<dim>1</dim>
				</port>
			</input>
			<output>
				<port id="2" precision="FP32" names="488,hidden_states.47">
					<dim>-1</dim>
					<dim>-1</dim>
					<dim>512</dim>
				</port>
			</output>
		</layer>
		<layer id="319" name="__module.block.3.layer.0.layer_norm/aten::mul/Multiply_1" type="Multiply" version="opset1">
			<data auto_broadcast="numpy" />
			<input>
				<port id="0" precision="FP32">
					<dim>1</dim>
					<dim>1</dim>
					<dim>512</dim>
				</port>
				<port id="1" precision="FP32">
					<dim>-1</dim>
					<dim>-1</dim>
					<dim>512</dim>
				</port>
			</input>
			<output>
				<port id="2" precision="FP32" names="489,491,hidden_states.49">
					<dim>-1</dim>
					<dim>-1</dim>
					<dim>512</dim>
				</port>
			</output>
		</layer>
		<layer id="320" name="self.block.3.layer.0.SelfAttention.q.weight" type="Const" version="opset1">
			<data element_type="f32" shape="384, 512" offset="137765812" size="786432" />
			<output>
				<port id="0" precision="FP32" names="self.block.3.layer.0.SelfAttention.q.weight">
					<dim>384</dim>
					<dim>512</dim>
				</port>
			</output>
		</layer>
		<layer id="321" name="__module.block.3.layer.0.SelfAttention.q/aten::linear/MatMul" type="MatMul" version="opset1">
			<data transpose_a="false" transpose_b="true" />
			<input>
				<port id="0" precision="FP32">
					<dim>-1</dim>
					<dim>-1</dim>
					<dim>512</dim>
				</port>
				<port id="1" precision="FP32">
					<dim>384</dim>
					<dim>512</dim>
				</port>
			</input>
			<output>
				<port id="2" precision="FP32" names="499,states.25">
					<dim>-1</dim>
					<dim>-1</dim>
					<dim>384</dim>
				</port>
			</output>
		</layer>
		<layer id="322" name="__module.block.3.layer.0.SelfAttention/aten::size/ShapeOf" type="ShapeOf" version="opset3">
			<data output_type="i64" />
			<input>
				<port id="0" precision="FP32">
					<dim>-1</dim>
					<dim>-1</dim>
					<dim>512</dim>
				</port>
			</input>
			<output>
				<port id="1" precision="I64">
					<dim>3</dim>
				</port>
			</output>
		</layer>
		<layer id="323" name="Constant_8624" type="Const" version="opset1">
			<data element_type="i64" shape="1" offset="103936032" size="8" />
			<output>
				<port id="0" precision="I64">
					<dim>1</dim>
				</port>
			</output>
		</layer>
		<layer id="324" name="__module.block.3.layer.0.SelfAttention/aten::size/Constant" type="Const" version="opset1">
			<data element_type="i32" shape="" offset="103147536" size="4" />
			<output>
				<port id="0" precision="I32" />
			</output>
		</layer>
		<layer id="325" name="__module.block.3.layer.0.SelfAttention/aten::size/Gather" type="Gather" version="opset8">
			<data batch_dims="0" />
			<input>
				<port id="0" precision="I64">
					<dim>3</dim>
				</port>
				<port id="1" precision="I64">
					<dim>1</dim>
				</port>
				<port id="2" precision="I32" />
			</input>
			<output>
				<port id="3" precision="I64" names="497">
					<dim>1</dim>
				</port>
			</output>
		</layer>
		<layer id="326" name="__module.block.3.layer.0.SelfAttention/prim::ListConstruct/Reshape_0" type="Const" version="opset1">
			<data element_type="i64" shape="1" offset="103147520" size="8" />
			<output>
				<port id="0" precision="I64">
					<dim>1</dim>
				</port>
			</output>
		</layer>
		<layer id="327" name="__module.block.3.layer.0.SelfAttention/prim::ListConstruct/Reshape_1" type="Const" version="opset1">
			<data element_type="i64" shape="1" offset="103936040" size="8" />
			<output>
				<port id="0" precision="I64">
					<dim>1</dim>
				</port>
			</output>
		</layer>
		<layer id="328" name="__module.block.3.layer.0.SelfAttention/prim::ListConstruct/Reshape_2" type="Const" version="opset1">
			<data element_type="i64" shape="1" offset="103936048" size="8" />
			<output>
				<port id="0" precision="I64">
					<dim>1</dim>
				</port>
			</output>
		</layer>
		<layer id="329" name="__module.block.3.layer.0.SelfAttention/prim::ListConstruct/Concat" type="Concat" version="opset1">
			<data axis="0" />
			<input>
				<port id="0" precision="I64">
					<dim>1</dim>
				</port>
				<port id="1" precision="I64">
					<dim>1</dim>
				</port>
				<port id="2" precision="I64">
					<dim>1</dim>
				</port>
				<port id="3" precision="I64">
					<dim>1</dim>
				</port>
			</input>
			<output>
				<port id="4" precision="I64" names="500,505,510">
					<dim>4</dim>
				</port>
			</output>
		</layer>
		<layer id="330" name="__module.block.3.layer.0.SelfAttention/aten::view/Reshape" type="Reshape" version="opset1">
			<data special_zero="false" />
			<input>
				<port id="0" precision="FP32">
					<dim>-1</dim>
					<dim>-1</dim>
					<dim>384</dim>
				</port>
				<port id="1" precision="I64">
					<dim>4</dim>
				</port>
			</input>
			<output>
				<port id="2" precision="FP32" names="501">
					<dim>-1</dim>
					<dim>-1</dim>
					<dim>6</dim>
					<dim>64</dim>
				</port>
			</output>
		</layer>
		<layer id="331" name="__module.block.3.layer.0.SelfAttention/aten::transpose/ScatterElementsUpdate" type="Const" version="opset1">
			<data element_type="i32" shape="4" offset="103936056" size="16" />
			<output>
				<port id="0" precision="I32">
					<dim>4</dim>
				</port>
			</output>
		</layer>
		<layer id="332" name="__module.block.3.layer.0.SelfAttention/aten::transpose/Transpose" type="Transpose" version="opset1">
			<input>
				<port id="0" precision="FP32">
					<dim>-1</dim>
					<dim>-1</dim>
					<dim>6</dim>
					<dim>64</dim>
				</port>
				<port id="1" precision="I32">
					<dim>4</dim>
				</port>
			</input>
			<output>
				<port id="2" precision="FP32" names="502">
					<dim>-1</dim>
					<dim>6</dim>
					<dim>-1</dim>
					<dim>64</dim>
				</port>
			</output>
		</layer>
		<layer id="333" name="self.block.3.layer.0.SelfAttention.k.weight" type="Const" version="opset1">
			<data element_type="f32" shape="384, 512" offset="138552244" size="786432" />
			<output>
				<port id="0" precision="FP32" names="self.block.3.layer.0.SelfAttention.k.weight">
					<dim>384</dim>
					<dim>512</dim>
				</port>
			</output>
		</layer>
		<layer id="334" name="__module.block.3.layer.0.SelfAttention.k/aten::linear/MatMul" type="MatMul" version="opset1">
			<data transpose_a="false" transpose_b="true" />
			<input>
				<port id="0" precision="FP32">
					<dim>-1</dim>
					<dim>-1</dim>
					<dim>512</dim>
				</port>
				<port id="1" precision="FP32">
					<dim>384</dim>
					<dim>512</dim>
				</port>
			</input>
			<output>
				<port id="2" precision="FP32" names="504,states.27">
					<dim>-1</dim>
					<dim>-1</dim>
					<dim>384</dim>
				</port>
			</output>
		</layer>
		<layer id="335" name="__module.block.3.layer.0.SelfAttention/aten::view/Reshape_1" type="Reshape" version="opset1">
			<data special_zero="false" />
			<input>
				<port id="0" precision="FP32">
					<dim>-1</dim>
					<dim>-1</dim>
					<dim>384</dim>
				</port>
				<port id="1" precision="I64">
					<dim>4</dim>
				</port>
			</input>
			<output>
				<port id="2" precision="FP32" names="506">
					<dim>-1</dim>
					<dim>-1</dim>
					<dim>6</dim>
					<dim>64</dim>
				</port>
			</output>
		</layer>
		<layer id="336" name="Constant_8692" type="Const" version="opset1">
			<data element_type="i32" shape="4" offset="104722504" size="16" />
			<output>
				<port id="0" precision="I32">
					<dim>4</dim>
				</port>
			</output>
		</layer>
		<layer id="337" name="__module.block.3.layer.0.SelfAttention/aten::transpose/Transpose_2" type="Transpose" version="opset1">
			<input>
				<port id="0" precision="FP32">
					<dim>-1</dim>
					<dim>-1</dim>
					<dim>6</dim>
					<dim>64</dim>
				</port>
				<port id="1" precision="I32">
					<dim>4</dim>
				</port>
			</input>
			<output>
				<port id="2" precision="FP32" names="513">
					<dim>-1</dim>
					<dim>6</dim>
					<dim>64</dim>
					<dim>-1</dim>
				</port>
			</output>
		</layer>
		<layer id="338" name="__module.block.3.layer.0.SelfAttention/aten::matmul/MatMul" type="MatMul" version="opset1">
			<data transpose_a="false" transpose_b="false" />
			<input>
				<port id="0" precision="FP32">
					<dim>-1</dim>
					<dim>6</dim>
					<dim>-1</dim>
					<dim>64</dim>
				</port>
				<port id="1" precision="FP32">
					<dim>-1</dim>
					<dim>6</dim>
					<dim>64</dim>
					<dim>-1</dim>
				</port>
			</input>
			<output>
				<port id="2" precision="FP32" names="514_1">
					<dim>-1</dim>
					<dim>6</dim>
					<dim>-1</dim>
					<dim>-1</dim>
				</port>
			</output>
		</layer>
		<layer id="339" name="__module.block.3.layer.0.SelfAttention/aten::add_/Add" type="Add" version="opset1">
			<data auto_broadcast="numpy" />
			<input>
				<port id="0" precision="FP32">
					<dim>-1</dim>
					<dim>6</dim>
					<dim>-1</dim>
					<dim>-1</dim>
				</port>
				<port id="1" precision="FP32">
					<dim>-1</dim>
					<dim>6</dim>
					<dim>-1</dim>
					<dim>-1</dim>
				</port>
			</input>
			<output>
				<port id="2" precision="FP32" names="514,516,input.39,scores.13">
					<dim>-1</dim>
					<dim>6</dim>
					<dim>-1</dim>
					<dim>-1</dim>
				</port>
			</output>
		</layer>
		<layer id="340" name="__module.block.3.layer.0.SelfAttention/aten::softmax/Softmax" type="SoftMax" version="opset8">
			<data axis="-1" />
			<input>
				<port id="0" precision="FP32">
					<dim>-1</dim>
					<dim>6</dim>
					<dim>-1</dim>
					<dim>-1</dim>
				</port>
			</input>
			<output>
				<port id="1" precision="FP32" names="517,518,input.41">
					<dim>-1</dim>
					<dim>6</dim>
					<dim>-1</dim>
					<dim>-1</dim>
				</port>
			</output>
		</layer>
		<layer id="341" name="self.block.3.layer.0.SelfAttention.v.weight" type="Const" version="opset1">
			<data element_type="f32" shape="384, 512" offset="139338676" size="786432" />
			<output>
				<port id="0" precision="FP32" names="self.block.3.layer.0.SelfAttention.v.weight">
					<dim>384</dim>
					<dim>512</dim>
				</port>
			</output>
		</layer>
		<layer id="342" name="__module.block.3.layer.0.SelfAttention.v/aten::linear/MatMul" type="MatMul" version="opset1">
			<data transpose_a="false" transpose_b="true" />
			<input>
				<port id="0" precision="FP32">
					<dim>-1</dim>
					<dim>-1</dim>
					<dim>512</dim>
				</port>
				<port id="1" precision="FP32">
					<dim>384</dim>
					<dim>512</dim>
				</port>
			</input>
			<output>
				<port id="2" precision="FP32" names="509,states.29">
					<dim>-1</dim>
					<dim>-1</dim>
					<dim>384</dim>
				</port>
			</output>
		</layer>
		<layer id="343" name="__module.block.3.layer.0.SelfAttention/aten::view/Reshape_2" type="Reshape" version="opset1">
			<data special_zero="false" />
			<input>
				<port id="0" precision="FP32">
					<dim>-1</dim>
					<dim>-1</dim>
					<dim>384</dim>
				</port>
				<port id="1" precision="I64">
					<dim>4</dim>
				</port>
			</input>
			<output>
				<port id="2" precision="FP32" names="511">
					<dim>-1</dim>
					<dim>-1</dim>
					<dim>6</dim>
					<dim>64</dim>
				</port>
			</output>
		</layer>
		<layer id="344" name="__module.block.3.layer.0.SelfAttention/aten::transpose/ScatterElementsUpdate_3" type="Const" version="opset1">
			<data element_type="i32" shape="4" offset="103936056" size="16" />
			<output>
				<port id="0" precision="I32">
					<dim>4</dim>
				</port>
			</output>
		</layer>
		<layer id="345" name="__module.block.3.layer.0.SelfAttention/aten::transpose/Transpose_3" type="Transpose" version="opset1">
			<input>
				<port id="0" precision="FP32">
					<dim>-1</dim>
					<dim>-1</dim>
					<dim>6</dim>
					<dim>64</dim>
				</port>
				<port id="1" precision="I32">
					<dim>4</dim>
				</port>
			</input>
			<output>
				<port id="2" precision="FP32" names="512">
					<dim>-1</dim>
					<dim>6</dim>
					<dim>-1</dim>
					<dim>64</dim>
				</port>
			</output>
		</layer>
		<layer id="346" name="__module.block.3.layer.0.SelfAttention/aten::matmul/MatMul_1" type="MatMul" version="opset1">
			<data transpose_a="false" transpose_b="false" />
			<input>
				<port id="0" precision="FP32">
					<dim>-1</dim>
					<dim>6</dim>
					<dim>-1</dim>
					<dim>-1</dim>
				</port>
				<port id="1" precision="FP32">
					<dim>-1</dim>
					<dim>6</dim>
					<dim>-1</dim>
					<dim>64</dim>
				</port>
			</input>
			<output>
				<port id="2" precision="FP32" names="520,states.31">
					<dim>-1</dim>
					<dim>6</dim>
					<dim>-1</dim>
					<dim>64</dim>
				</port>
			</output>
		</layer>
		<layer id="347" name="__module.block.3.layer.0.SelfAttention/aten::transpose/ScatterElementsUpdate_4" type="Const" version="opset1">
			<data element_type="i32" shape="4" offset="103936056" size="16" />
			<output>
				<port id="0" precision="I32">
					<dim>4</dim>
				</port>
			</output>
		</layer>
		<layer id="348" name="__module.block.3.layer.0.SelfAttention/aten::transpose/Transpose_4" type="Transpose" version="opset1">
			<input>
				<port id="0" precision="FP32">
					<dim>-1</dim>
					<dim>6</dim>
					<dim>-1</dim>
					<dim>64</dim>
				</port>
				<port id="1" precision="I32">
					<dim>4</dim>
				</port>
			</input>
			<output>
				<port id="2" precision="FP32" names="521">
					<dim>-1</dim>
					<dim>-1</dim>
					<dim>6</dim>
					<dim>64</dim>
				</port>
			</output>
		</layer>
		<layer id="349" name="__module.block.3.layer.0.SelfAttention/prim::ListConstruct/Reshape_1_3" type="Const" version="opset1">
			<data element_type="i64" shape="1" offset="105509792" size="8" />
			<output>
				<port id="0" precision="I64">
					<dim>1</dim>
				</port>
			</output>
		</layer>
		<layer id="350" name="__module.block.3.layer.0.SelfAttention/prim::ListConstruct/Concat_3" type="Concat" version="opset1">
			<data axis="0" />
			<input>
				<port id="0" precision="I64">
					<dim>1</dim>
				</port>
				<port id="1" precision="I64">
					<dim>1</dim>
				</port>
				<port id="2" precision="I64">
					<dim>1</dim>
				</port>
			</input>
			<output>
				<port id="3" precision="I64" names="523">
					<dim>3</dim>
				</port>
			</output>
		</layer>
		<layer id="351" name="__module.block.3.layer.0.SelfAttention/aten::view/Reshape_3" type="Reshape" version="opset1">
			<data special_zero="false" />
			<input>
				<port id="0" precision="FP32">
					<dim>-1</dim>
					<dim>-1</dim>
					<dim>6</dim>
					<dim>64</dim>
				</port>
				<port id="1" precision="I64">
					<dim>3</dim>
				</port>
			</input>
			<output>
				<port id="2" precision="FP32" names="524">
					<dim>-1</dim>
					<dim>-1</dim>
					<dim>384</dim>
				</port>
			</output>
		</layer>
		<layer id="352" name="self.block.3.layer.0.SelfAttention.o.weight" type="Const" version="opset1">
			<data element_type="f32" shape="512, 384" offset="140125108" size="786432" />
			<output>
				<port id="0" precision="FP32" names="self.block.3.layer.0.SelfAttention.o.weight">
					<dim>512</dim>
					<dim>384</dim>
				</port>
			</output>
		</layer>
		<layer id="353" name="__module.block.3.layer.0.SelfAttention.o/aten::linear/MatMul" type="MatMul" version="opset1">
			<data transpose_a="false" transpose_b="true" />
			<input>
				<port id="0" precision="FP32">
					<dim>-1</dim>
					<dim>-1</dim>
					<dim>384</dim>
				</port>
				<port id="1" precision="FP32">
					<dim>512</dim>
					<dim>384</dim>
				</port>
			</input>
			<output>
				<port id="2" precision="FP32" names="526,input.43">
					<dim>-1</dim>
					<dim>-1</dim>
					<dim>512</dim>
				</port>
			</output>
		</layer>
		<layer id="354" name="__module.block.3.layer.0/aten::add/Add" type="Add" version="opset1">
			<data auto_broadcast="numpy" />
			<input>
				<port id="0" precision="FP32">
					<dim>-1</dim>
					<dim>-1</dim>
					<dim>512</dim>
				</port>
				<port id="1" precision="FP32">
					<dim>-1</dim>
					<dim>-1</dim>
					<dim>512</dim>
				</port>
			</input>
			<output>
				<port id="2" precision="FP32" names="528,533,543,hidden_states.51,hidden_states.53">
					<dim>-1</dim>
					<dim>-1</dim>
					<dim>512</dim>
				</port>
			</output>
		</layer>
		<layer id="355" name="Constant_9237" type="Const" version="opset1">
			<data element_type="f32" shape="1, 1, 512" offset="140911540" size="2048" />
			<output>
				<port id="0" precision="FP32">
					<dim>1</dim>
					<dim>1</dim>
					<dim>512</dim>
				</port>
			</output>
		</layer>
		<layer id="356" name="Constant_9236" type="Const" version="opset1">
			<data element_type="f32" shape="1, 1, 1" offset="103149588" size="4" />
			<output>
				<port id="0" precision="FP32">
					<dim>1</dim>
					<dim>1</dim>
					<dim>1</dim>
				</port>
			</output>
		</layer>
		<layer id="357" name="Constant_9234" type="Const" version="opset1">
			<data element_type="f32" shape="1, 1, 1" offset="103149592" size="4" />
			<output>
				<port id="0" precision="FP32">
					<dim>1</dim>
					<dim>1</dim>
					<dim>1</dim>
				</port>
			</output>
		</layer>
		<layer id="358" name="__module.block.3.layer.1.layer_norm/aten::pow/Power" type="Power" version="opset1">
			<data auto_broadcast="numpy" />
			<input>
				<port id="0" precision="FP32">
					<dim>-1</dim>
					<dim>-1</dim>
					<dim>512</dim>
				</port>
				<port id="1" precision="FP32">
					<dim>1</dim>
					<dim>1</dim>
					<dim>1</dim>
				</port>
			</input>
			<output>
				<port id="2" precision="FP32" names="534">
					<dim>-1</dim>
					<dim>-1</dim>
					<dim>512</dim>
				</port>
			</output>
		</layer>
		<layer id="359" name="Constant_1559" type="Const" version="opset1">
			<data element_type="i64" shape="1" offset="103147520" size="8" />
			<output>
				<port id="0" precision="I64" names="535">
					<dim>1</dim>
…
		<edge from-layer="104" from-port="0" to-layer="105" to-port="1" />
		<edge from-layer="105" from-port="2" to-layer="106" to-port="1" />
		<edge from-layer="106" from-port="2" to-layer="108" to-port="0" />
		<edge from-layer="107" from-port="0" to-layer="108" to-port="1" />
		<edge from-layer="108" from-port="2" to-layer="111" to-port="0" />
		<edge from-layer="109" from-port="0" to-layer="110" to-port="2" />
		<edge from-layer="110" from-port="3" to-layer="111" to-port="1" />
		<edge from-layer="111" from-port="2" to-layer="113" to-port="0" />
		<edge from-layer="112" from-port="0" to-layer="113" to-port="1" />
		<edge from-layer="113" from-port="2" to-layer="114" to-port="1" />
		<edge from-layer="114" from-port="2" to-layer="147" to-port="0" />
		<edge from-layer="114" from-port="2" to-layer="118" to-port="0" />
		<edge from-layer="114" from-port="2" to-layer="125" to-port="0" />
		<edge from-layer="115" from-port="0" to-layer="126" to-port="0" />
		<edge from-layer="116" from-port="0" to-layer="124" to-port="0" />
		<edge from-layer="117" from-port="0" to-layer="118" to-port="1" />
		<edge from-layer="118" from-port="2" to-layer="120" to-port="0" />
		<edge from-layer="119" from-port="0" to-layer="120" to-port="1" />
		<edge from-layer="120" from-port="2" to-layer="122" to-port="0" />
		<edge from-layer="121" from-port="0" to-layer="122" to-port="1" />
		<edge from-layer="122" from-port="2" to-layer="123" to-port="0" />
		<edge from-layer="123" from-port="1" to-layer="124" to-port="1" />
		<edge from-layer="124" from-port="2" to-layer="125" to-port="1" />
		<edge from-layer="125" from-port="2" to-layer="126" to-port="1" />
		<edge from-layer="126" from-port="2" to-layer="128" to-port="0" />
		<edge from-layer="126" from-port="2" to-layer="130" to-port="0" />
		<edge from-layer="126" from-port="2" to-layer="143" to-port="0" />
		<edge from-layer="127" from-port="0" to-layer="128" to-port="1" />
		<edge from-layer="128" from-port="2" to-layer="141" to-port="0" />
		<edge from-layer="129" from-port="0" to-layer="130" to-port="1" />
		<edge from-layer="130" from-port="2" to-layer="132" to-port="0" />
		<edge from-layer="130" from-port="2" to-layer="135" to-port="0" />
		<edge from-layer="131" from-port="0" to-layer="132" to-port="1" />
		<edge from-layer="132" from-port="2" to-layer="134" to-port="0" />
		<edge from-layer="133" from-port="0" to-layer="134" to-port="1" />
		<edge from-layer="134" from-port="2" to-layer="135" to-port="1" />
		<edge from-layer="135" from-port="2" to-layer="137" to-port="0" />
		<edge from-layer="136" from-port="0" to-layer="137" to-port="1" />
		<edge from-layer="137" from-port="2" to-layer="138" to-port="0" />
		<edge from-layer="138" from-port="1" to-layer="140" to-port="0" />
		<edge from-layer="139" from-port="0" to-layer="140" to-port="1" />
		<edge from-layer="140" from-port="2" to-layer="141" to-port="1" />
		<edge from-layer="141" from-port="2" to-layer="144" to-port="0" />
		<edge from-layer="142" from-port="0" to-layer="143" to-port="1" />
		<edge from-layer="143" from-port="2" to-layer="144" to-port="1" />
		<edge from-layer="144" from-port="2" to-layer="146" to-port="0" />
		<edge from-layer="145" from-port="0" to-layer="146" to-port="1" />
		<edge from-layer="146" from-port="2" to-layer="147" to-port="1" />
		<edge from-layer="147" from-port="2" to-layer="194" to-port="0" />
		<edge from-layer="147" from-port="2" to-layer="158" to-port="0" />
		<edge from-layer="147" from-port="2" to-layer="151" to-port="0" />
		<edge from-layer="148" from-port="0" to-layer="159" to-port="0" />
		<edge from-layer="149" from-port="0" to-layer="157" to-port="0" />
		<edge from-layer="150" from-port="0" to-layer="151" to-port="1" />
		<edge from-layer="151" from-port="2" to-layer="153" to-port="0" />
		<edge from-layer="152" from-port="0" to-layer="153" to-port="1" />
		<edge from-layer="153" from-port="2" to-layer="155" to-port="0" />
		<edge from-layer="154" from-port="0" to-layer="155" to-port="1" />
		<edge from-layer="155" from-port="2" to-layer="156" to-port="0" />
		<edge from-layer="156" from-port="1" to-layer="157" to-port="1" />
		<edge from-layer="157" from-port="2" to-layer="158" to-port="1" />
		<edge from-layer="158" from-port="2" to-layer="159" to-port="1" />
		<edge from-layer="159" from-port="2" to-layer="162" to-port="0" />
		<edge from-layer="159" from-port="2" to-layer="161" to-port="0" />
		<edge from-layer="159" from-port="2" to-layer="174" to-port="0" />
		<edge from-layer="159" from-port="2" to-layer="182" to-port="0" />
		<edge from-layer="160" from-port="0" to-layer="161" to-port="1" />
		<edge from-layer="161" from-port="2" to-layer="170" to-port="0" />
		<edge from-layer="162" from-port="1" to-layer="165" to-port="0" />
		<edge from-layer="163" from-port="0" to-layer="165" to-port="1" />
		<edge from-layer="164" from-port="0" to-layer="165" to-port="2" />
		<edge from-layer="165" from-port="3" to-layer="190" to-port="0" />
		<edge from-layer="165" from-port="3" to-layer="169" to-port="0" />
		<edge from-layer="166" from-port="0" to-layer="169" to-port="1" />
		<edge from-layer="166" from-port="0" to-layer="190" to-port="1" />
		<edge from-layer="167" from-port="0" to-layer="169" to-port="2" />
		<edge from-layer="168" from-port="0" to-layer="169" to-port="3" />
		<edge from-layer="169" from-port="4" to-layer="170" to-port="1" />
		<edge from-layer="169" from-port="4" to-layer="175" to-port="1" />
		<edge from-layer="169" from-port="4" to-layer="183" to-port="1" />
		<edge from-layer="170" from-port="2" to-layer="172" to-port="0" />
		<edge from-layer="171" from-port="0" to-layer="172" to-port="1" />
		<edge from-layer="172" from-port="2" to-layer="178" to-port="0" />
		<edge from-layer="173" from-port="0" to-layer="174" to-port="1" />
		<edge from-layer="174" from-port="2" to-layer="175" to-port="0" />
		<edge from-layer="175" from-port="2" to-layer="177" to-port="0" />
		<edge from-layer="176" from-port="0" to-layer="177" to-port="1" />
		<edge from-layer="177" from-port="2" to-layer="178" to-port="1" />
		<edge from-layer="178" from-port="2" to-layer="179" to-port="0" />
		<edge from-layer="179" from-port="2" to-layer="180" to-port="0" />
		<edge from-layer="180" from-port="1" to-layer="186" to-port="0" />
		<edge from-layer="181" from-port="0" to-layer="182" to-port="1" />
		<edge from-layer="182" from-port="2" to-layer="183" to-port="0" />
		<edge from-layer="183" from-port="2" to-layer="185" to-port="0" />
		<edge from-layer="184" from-port="0" to-layer="185" to-port="1" />
		<edge from-layer="185" from-port="2" to-layer="186" to-port="1" />
		<edge from-layer="186" from-port="2" to-layer="188" to-port="0" />
		<edge from-layer="187" from-port="0" to-layer="188" to-port="1" />
		<edge from-layer="188" from-port="2" to-layer="191" to-port="0" />
		<edge from-layer="189" from-port="0" to-layer="190" to-port="2" />
		<edge from-layer="190" from-port="3" to-layer="191" to-port="1" />
		<edge from-layer="191" from-port="2" to-layer="193" to-port="0" />
		<edge from-layer="192" from-port="0" to-layer="193" to-port="1" />
		<edge from-layer="193" from-port="2" to-layer="194" to-port="1" />
		<edge from-layer="194" from-port="2" to-layer="227" to-port="0" />
		<edge from-layer="194" from-port="2" to-layer="205" to-port="0" />
		<edge from-layer="194" from-port="2" to-layer="198" to-port="0" />
		<edge from-layer="195" from-port="0" to-layer="206" to-port="0" />
		<edge from-layer="196" from-port="0" to-layer="204" to-port="0" />
		<edge from-layer="197" from-port="0" to-layer="198" to-port="1" />
		<edge from-layer="198" from-port="2" to-layer="200" to-port="0" />
		<edge from-layer="199" from-port="0" to-layer="200" to-port="1" />
		<edge from-layer="200" from-port="2" to-layer="202" to-port="0" />
		<edge from-layer="201" from-port="0" to-layer="202" to-port="1" />
		<edge from-layer="202" from-port="2" to-layer="203" to-port="0" />
		<edge from-layer="203" from-port="1" to-layer="204" to-port="1" />
		<edge from-layer="204" from-port="2" to-layer="205" to-port="1" />
		<edge from-layer="205" from-port="2" to-layer="206" to-port="1" />
		<edge from-layer="206" from-port="2" to-layer="210" to-port="0" />
		<edge from-layer="206" from-port="2" to-layer="208" to-port="0" />
		<edge from-layer="206" from-port="2" to-layer="223" to-port="0" />
		<edge from-layer="207" from-port="0" to-layer="208" to-port="1" />
		<edge from-layer="208" from-port="2" to-layer="221" to-port="0" />
		<edge from-layer="209" from-port="0" to-layer="210" to-port="1" />
		<edge from-layer="210" from-port="2" to-layer="215" to-port="0" />
		<edge from-layer="210" from-port="2" to-layer="212" to-port="0" />
		<edge from-layer="211" from-port="0" to-layer="212" to-port="1" />
		<edge from-layer="212" from-port="2" to-layer="214" to-port="0" />
		<edge from-layer="213" from-port="0" to-layer="214" to-port="1" />
		<edge from-layer="214" from-port="2" to-layer="215" to-port="1" />
		<edge from-layer="215" from-port="2" to-layer="217" to-port="0" />
		<edge from-layer="216" from-port="0" to-layer="217" to-port="1" />
		<edge from-layer="217" from-port="2" to-layer="218" to-port="0" />
		<edge from-layer="218" from-port="1" to-layer="220" to-port="0" />
		<edge from-layer="219" from-port="0" to-layer="220" to-port="1" />
		<edge from-layer="220" from-port="2" to-layer="221" to-port="1" />
		<edge from-layer="221" from-port="2" to-layer="224" to-port="0" />
		<edge from-layer="222" from-port="0" to-layer="223" to-port="1" />
		<edge from-layer="223" from-port="2" to-layer="224" to-port="1" />
		<edge from-layer="224" from-port="2" to-layer="226" to-port="0" />
		<edge from-layer="225" from-port="0" to-layer="226" to-port="1" />
		<edge from-layer="226" from-port="2" to-layer="227" to-port="1" />
		<edge from-layer="227" from-port="2" to-layer="238" to-port="0" />
		<edge from-layer="227" from-port="2" to-layer="231" to-port="0" />
		<edge from-layer="227" from-port="2" to-layer="274" to-port="0" />
		<edge from-layer="228" from-port="0" to-layer="239" to-port="0" />
		<edge from-layer="229" from-port="0" to-layer="237" to-port="0" />
		<edge from-layer="230" from-port="0" to-layer="231" to-port="1" />
		<edge from-layer="231" from-port="2" to-layer="233" to-port="0" />
		<edge from-layer="232" from-port="0" to-layer="233" to-port="1" />
		<edge from-layer="233" from-port="2" to-layer="235" to-port="0" />
		<edge from-layer="234" from-port="0" to-layer="235" to-port="1" />
		<edge from-layer="235" from-port="2" to-layer="236" to-port="0" />
		<edge from-layer="236" from-port="1" to-layer="237" to-port="1" />
		<edge from-layer="237" from-port="2" to-layer="238" to-port="1" />
		<edge from-layer="238" from-port="2" to-layer="239" to-port="1" />
		<edge from-layer="239" from-port="2" to-layer="241" to-port="0" />
		<edge from-layer="239" from-port="2" to-layer="262" to-port="0" />
		<edge from-layer="239" from-port="2" to-layer="254" to-port="0" />
		<edge from-layer="239" from-port="2" to-layer="242" to-port="0" />
		<edge from-layer="240" from-port="0" to-layer="241" to-port="1" />
		<edge from-layer="241" from-port="2" to-layer="250" to-port="0" />
		<edge from-layer="242" from-port="1" to-layer="245" to-port="0" />
		<edge from-layer="243" from-port="0" to-layer="245" to-port="1" />
		<edge from-layer="244" from-port="0" to-layer="245" to-port="2" />
		<edge from-layer="245" from-port="3" to-layer="270" to-port="0" />
		<edge from-layer="245" from-port="3" to-layer="249" to-port="0" />
		<edge from-layer="246" from-port="0" to-layer="249" to-port="1" />
		<edge from-layer="246" from-port="0" to-layer="270" to-port="1" />
		<edge from-layer="247" from-port="0" to-layer="249" to-port="2" />
		<edge from-layer="248" from-port="0" to-layer="249" to-port="3" />
		<edge from-layer="249" from-port="4" to-layer="255" to-port="1" />
		<edge from-layer="249" from-port="4" to-layer="250" to-port="1" />
		<edge from-layer="249" from-port="4" to-layer="263" to-port="1" />
		<edge from-layer="250" from-port="2" to-layer="252" to-port="0" />
		<edge from-layer="251" from-port="0" to-layer="252" to-port="1" />
		<edge from-layer="252" from-port="2" to-layer="258" to-port="0" />
		<edge from-layer="253" from-port="0" to-layer="254" to-port="1" />
		<edge from-layer="254" from-port="2" to-layer="255" to-port="0" />
		<edge from-layer="255" from-port="2" to-layer="257" to-port="0" />
		<edge from-layer="256" from-port="0" to-layer="257" to-port="1" />
		<edge from-layer="257" from-port="2" to-layer="258" to-port="1" />
		<edge from-layer="258" from-port="2" to-layer="259" to-port="0" />
		<edge from-layer="259" from-port="2" to-layer="260" to-port="0" />
		<edge from-layer="260" from-port="1" to-layer="266" to-port="0" />
		<edge from-layer="261" from-port="0" to-layer="262" to-port="1" />
		<edge from-layer="262" from-port="2" to-layer="263" to-port="0" />
		<edge from-layer="263" from-port="2" to-layer="265" to-port="0" />
		<edge from-layer="264" from-port="0" to-layer="265" to-port="1" />
		<edge from-layer="265" from-port="2" to-layer="266" to-port="1" />
		<edge from-layer="266" from-port="2" to-layer="268" to-port="0" />
		<edge from-layer="267" from-port="0" to-layer="268" to-port="1" />
		<edge from-layer="268" from-port="2" to-layer="271" to-port="0" />
		<edge from-layer="269" from-port="0" to-layer="270" to-port="2" />
		<edge from-layer="270" from-port="3" to-layer="271" to-port="1" />
		<edge from-layer="271" from-port="2" to-layer="273" to-port="0" />
		<edge from-layer="272" from-port="0" to-layer="273" to-port="1" />
		<edge from-layer="273" from-port="2" to-layer="274" to-port="1" />
		<edge from-layer="274" from-port="2" to-layer="285" to-port="0" />
		<edge from-layer="274" from-port="2" to-layer="278" to-port="0" />
		<edge from-layer="274" from-port="2" to-layer="307" to-port="0" />
		<edge from-layer="275" from-port="0" to-layer="286" to-port="0" />
		<edge from-layer="276" from-port="0" to-layer="284" to-port="0" />
		<edge from-layer="277" from-port="0" to-layer="278" to-port="1" />
		<edge from-layer="278" from-port="2" to-layer="280" to-port="0" />
		<edge from-layer="279" from-port="0" to-layer="280" to-port="1" />
		<edge from-layer="280" from-port="2" to-layer="282" to-port="0" />
		<edge from-layer="281" from-port="0" to-layer="282" to-port="1" />
		<edge from-layer="282" from-port="2" to-layer="283" to-port="0" />
		<edge from-layer="283" from-port="1" to-layer="284" to-port="1" />
		<edge from-layer="284" from-port="2" to-layer="285" to-port="1" />
		<edge from-layer="285" from-port="2" to-layer="286" to-port="1" />
		<edge from-layer="286" from-port="2" to-layer="288" to-port="0" />
		<edge from-layer="286" from-port="2" to-layer="290" to-port="0" />
		<edge from-layer="286" from-port="2" to-layer="303" to-port="0" />
		<edge from-layer="287" from-port="0" to-layer="288" to-port="1" />
		<edge from-layer="288" from-port="2" to-layer="301" to-port="0" />
		<edge from-layer="289" from-port="0" to-layer="290" to-port="1" />
		<edge from-layer="290" from-port="2" to-layer="292" to-port="0" />
		<edge from-layer="290" from-port="2" to-layer="295" to-port="0" />
		<edge from-layer="291" from-port="0" to-layer="292" to-port="1" />
		<edge from-layer="292" from-port="2" to-layer="294" to-port="0" />
		<edge from-layer="293" from-port="0" to-layer="294" to-port="1" />
		<edge from-layer="294" from-port="2" to-layer="295" to-port="1" />
		<edge from-layer="295" from-port="2" to-layer="297" to-port="0" />
		<edge from-layer="296" from-port="0" to-layer="297" to-port="1" />
		<edge from-layer="297" from-port="2" to-layer="298" to-port="0" />
		<edge from-layer="298" from-port="1" to-layer="300" to-port="0" />
		<edge from-layer="299" from-port="0" to-layer="300" to-port="1" />
		<edge from-layer="300" from-port="2" to-layer="301" to-port="1" />
		<edge from-layer="301" from-port="2" to-layer="304" to-port="0" />
		<edge from-layer="302" from-port="0" to-layer="303" to-port="1" />
		<edge from-layer="303" from-port="2" to-layer="304" to-port="1" />
		<edge from-layer="304" from-port="2" to-layer="306" to-port="0" />
		<edge from-layer="305" from-port="0" to-layer="306" to-port="1" />
		<edge from-layer="306" from-port="2" to-layer="307" to-port="1" />
		<edge from-layer="307" from-port="2" to-layer="311" to-port="0" />
		<edge from-layer="307" from-port="2" to-layer="354" to-port="0" />
		<edge from-layer="307" from-port="2" to-layer="318" to-port="0" />
		<edge from-layer="308" from-port="0" to-layer="319" to-port="0" />
		<edge from-layer="309" from-port="0" to-layer="317" to-port="0" />
		<edge from-layer="310" from-port="0" to-layer="311" to-port="1" />
		<edge from-layer="311" from-port="2" to-layer="313" to-port="0" />
		<edge from-layer="312" from-port="0" to-layer="313" to-port="1" />
		<edge from-layer="313" from-port="2" to-layer="315" to-port="0" />
		<edge from-layer="314" from-port="0" to-layer="315" to-port="1" />
		<edge from-layer="315" from-port="2" to-layer="316" to-port="0" />
		<edge from-layer="316" from-port="1" to-layer="317" to-port="1" />
		<edge from-layer="317" from-port="2" to-layer="318" to-port="1" />
		<edge from-layer="318" from-port="2" to-layer="319" to-port="1" />
		<edge from-layer="319" from-port="2" to-layer="342" to-port="0" />
		<edge from-layer="319" from-port="2" to-layer="322" to-port="0" />
		<edge from-layer="319" from-port="2" to-layer="321" to-port="0" />
		<edge from-layer="319" from-port="2" to-layer="334" to-port="0" />
		<edge from-layer="320" from-port="0" to-layer="321" to-port="1" />
		<edge from-layer="321" from-port="2" to-layer="330" to-port="0" />
		<edge from-layer="322" from-port="1" to-layer="325" to-port="0" />
		<edge from-layer="323" from-port="0" to-layer="325" to-port="1" />
		<edge from-layer="324" from-port="0" to-layer="325" to-port="2" />
		<edge from-layer="325" from-port="3" to-layer="329" to-port="0" />
		<edge from-layer="325" from-port="3" to-layer="350" to-port="0" />
		<edge from-layer="326" from-port="0" to-layer="350" to-port="1" />
		<edge from-layer="326" from-port="0" to-layer="329" to-port="1" />
		<edge from-layer="327" from-port="0" to-layer="329" to-port="2" />
		<edge from-layer="328" from-port="0" to-layer="329" to-port="3" />
		<edge from-layer="329" from-port="4" to-layer="330" to-port="1" />
		<edge from-layer="329" from-port="4" to-layer="343" to-port="1" />
		<edge from-layer="329" from-port="4" to-layer="335" to-port="1" />
		<edge from-layer="330" from-port="2" to-layer="332" to-port="0" />
		<edge from-layer="331" from-port="0" to-layer="332" to-port="1" />
		<edge from-layer="332" from-port="2" to-layer="338" to-port="0" />
		<edge from-layer="333" from-port="0" to-layer="334" to-port="1" />
		<edge from-layer="334" from-port="2" to-layer="335" to-port="0" />
		<edge from-layer="335" from-port="2" to-layer="337" to-port="0" />
		<edge from-layer="336" from-port="0" to-layer="337" to-port="1" />
		<edge from-layer="337" from-port="2" to-layer="338" to-port="1" />
		<edge from-layer="338" from-port="2" to-layer="339" to-port="0" />
		<edge from-layer="339" from-port="2" to-layer="340" to-port="0" />
		<edge from-layer="340" from-port="1" to-layer="346" to-port="0" />
		<edge from-layer="341" from-port="0" to-layer="342" to-port="1" />
		<edge from-layer="342" from-port="2" to-layer="343" to-port="0" />
		<edge from-layer="343" from-port="2" to-layer="345" to-port="0" />
		<edge from-layer="344" from-port="0" to-layer="345" to-port="1" />
		<edge from-layer="345" from-port="2" to-layer="346" to-port="1" />
		<edge from-layer="346" from-port="2" to-layer="348" to-port="0" />
		<edge from-layer="347" from-port="0" to-layer="348" to-port="1" />
		<edge from-layer="348" from-port="2" to-layer="351" to-port="0" />
		<edge from-layer="349" from-port="0" to-layer="350" to-port="2" />
		<edge from-layer="350" from-port="3" to-layer="351" to-port="1" />
		<edge from-layer="351" from-port="2" to-layer="353" to-port="0" />
		<edge from-layer="352" from-port="0" to-layer="353" to-port="1" />
		<edge from-layer="353" from-port="2" to-layer="354" to-port="1" />
		<edge from-layer="354" from-port="2" to-layer="365" to-port="0" />
		<edge from-layer="354" from-port="2" to-layer="358" to-port="0" />
		<edge from-layer="354" from-port="2" to-layer="387" to-port="0" />
		<edge from-layer="355" from-port="0" to-layer="366" to-port="0" />
		<edge from-layer="356" from-port="0" to-layer="364" to-port="0" />
		<edge from-layer="357" from-port="0" to-layer="358" to-port="1" />
		<edge from-layer="358" from-port="2" to-layer="360" to-port="0" />
		<edge from-layer="359" from-port="0" to-layer="360" to-port="1" />
		<edge from-layer="360" from-port="2" to-layer="362" to-port="0" />
		<edge from-layer="361" from-port="0" to-layer="362" to-port="1" />
		<edge from-layer="362" from-port="2" to-layer="363" to-port="0" />
		<edge from-layer="363" from-port="1" to-layer="364" to-port="1" />
		<edge from-layer="364" from-port="2" to-layer="365" to-port="1" />
		<edge from-layer="365" from-port="2" to-layer="366" to-port="1" />
		<edge from-layer="366" from-port="2" to-layer="368" to-port="0" />
		<edge from-layer="366" from-port="2" to-layer="370" to-port="0" />
		<edge from-layer="366" from-port="2" to-layer="383" to-port="0" />
		<edge from-layer="367" from-port="0" to-layer="368" to-port="1" />
		<edge from-layer="368" from-port="2" to-layer="381" to-port="0" />
		<edge from-layer="369" from-port="0" to-layer="370" to-port="1" />
		<edge from-layer="370" from-port="2" to-layer="375" to-port="0" />
		<edge from-layer="370" from-port="2" to-layer="372" to-port="0" />
		<edge from-layer="371" from-port="0" to-layer="372" to-port="1" />
		<edge from-layer="372" from-port="2" to-layer="374" to-port="0" />
		<edge from-layer="373" from-port="0" to-layer="374" to-port="1" />
		<edge from-layer="374" from-port="2" to-layer="375" to-port="1" />
		<edge from-layer="375" from-port="2" to-layer="377" to-port="0" />
		<edge from-layer="376" from-port="0" to-layer="377" to-port="1" />
		<edge from-layer="377" from-port="2" to-layer="378" to-port="0" />
		<edge from-layer="378" from-port="1" to-layer="380" to-port="0" />
		<edge from-layer="379" from-port="0" to-layer="380" to-port="1" />
		<edge from-layer="380" from-port="2" to-layer="381" to-port="1" />
		<edge from-layer="381" from-port="2" to-layer="384" to-port="0" />
		<edge from-layer="382" from-port="0" to-layer="383" to-port="1" />
		<edge from-layer="383" from-port="2" to-layer="384" to-port="1" />
		<edge from-layer="384" from-port="2" to-layer="386" to-port="0" />
		<edge from-layer="385" from-port="0" to-layer="386" to-port="1" />
		<edge from-layer="386" from-port="2" to-layer="387" to-port="1" />
		<edge from-layer="387" from-port="2" to-layer="391" to-port="0" />
		<edge from-layer="387" from-port="2" to-layer="434" to-port="0" />
		<edge from-layer="387" from-port="2" to-layer="398" to-port="0" />
		<edge from-layer="388" from-port="0" to-layer="399" to-port="0" />
		<edge from-layer="389" from-port="0" to-layer="397" to-port="0" />
		<edge from-layer="390" from-port="0" to-layer="391" to-port="1" />
		<edge from-layer="391" from-port="2" to-layer="393" to-port="0" />
		<edge from-layer="392" from-port="0" to-layer="393" to-port="1" />
		<edge from-layer="393" from-port="2" to-layer="395" to-port="0" />
		<edge from-layer="394" from-port="0" to-layer="395" to-port="1" />
		<edge from-layer="395" from-port="2" to-layer="396" to-port="0" />
		<edge from-layer="396" from-port="1" to-layer="397" to-port="1" />
		<edge from-layer="397" from-port="2" to-layer="398" to-port="1" />
		<edge from-layer="398" from-port="2" to-layer="399" to-port="1" />
		<edge from-layer="399" from-port="2" to-layer="401" to-port="0" />
		<edge from-layer="399" from-port="2" to-layer="402" to-port="0" />
		<edge from-layer="399" from-port="2" to-layer="414" to-port="0" />
		<edge from-layer="399" from-port="2" to-layer="422" to-port="0" />
		<edge from-layer="400" from-port="0" to-layer="401" to-port="1" />
		<edge from-layer="401" from-port="2" to-layer="410" to-port="0" />
		<edge from-layer="402" from-port="1" to-layer="405" to-port="0" />
		<edge from-layer="403" from-port="0" to-layer="405" to-port="1" />
		<edge from-layer="404" from-port="0" to-layer="405" to-port="2" />
		<edge from-layer="405" from-port="3" to-layer="430" to-port="0" />
		<edge from-layer="405" from-port="3" to-layer="409" to-port="0" />
		<edge from-layer="406" from-port="0" to-layer="430" to-port="1" />
		<edge from-layer="406" from-port="0" to-layer="409" to-port="1" />
		<edge from-layer="407" from-port="0" to-layer="409" to-port="2" />
		<edge from-layer="408" from-port="0" to-layer="409" to-port="3" />
		<edge from-layer="409" from-port="4" to-layer="423" to-port="1" />
		<edge from-layer="409" from-port="4" to-layer="415" to-port="1" />
		<edge from-layer="409" from-port="4" to-layer="410" to-port="1" />
		<edge from-layer="410" from-port="2" to-layer="412" to-port="0" />
		<edge from-layer="411" from-port="0" to-layer="412" to-port="1" />
		<edge from-layer="412" from-port="2" to-layer="418" to-port="0" />
		<edge from-layer="413" from-port="0" to-layer="414" to-port="1" />
		<edge from-layer="414" from-port="2" to-layer="415" to-port="0" />
		<edge from-layer="415" from-port="2" to-layer="417" to-port="0" />
		<edge from-layer="416" from-port="0" to-layer="417" to-port="1" />
		<edge from-layer="417" from-port="2" to-layer="418" to-port="1" />
		<edge from-layer="418" from-port="2" to-layer="419" to-port="0" />
		<edge from-layer="419" from-port="2" to-layer="420" to-port="0" />
		<edge from-layer="420" from-port="1" to-layer="426" to-port="0" />
		<edge from-layer="421" from-port="0" to-layer="422" to-port="1" />
		<edge from-layer="422" from-port="2" to-layer="423" to-port="0" />
		<edge from-layer="423" from-port="2" to-layer="425" to-port="0" />
		<edge from-layer="424" from-port="0" to-layer="425" to-port="1" />
		<edge from-layer="425" from-port="2" to-layer="426" to-port="1" />
		<edge from-layer="426" from-port="2" to-layer="428" to-port="0" />
		<edge from-layer="427" from-port="0" to-layer="428" to-port="1" />
		<edge from-layer="428" from-port="2" to-layer="431" to-port="0" />
		<edge from-layer="429" from-port="0" to-layer="430" to-port="2" />
		<edge from-layer="430" from-port="3" to-layer="431" to-port="1" />
		<edge from-layer="431" from-port="2" to-layer="433" to-port="0" />
		<edge from-layer="432" from-port="0" to-layer="433" to-port="1" />
		<edge from-layer="433" from-port="2" to-layer="434" to-port="1" />
		<edge from-layer="434" from-port="2" to-layer="445" to-port="0" />
		<edge from-layer="434" from-port="2" to-layer="467" to-port="0" />
		<edge from-layer="434" from-port="2" to-layer="438" to-port="0" />
		<edge from-layer="435" from-port="0" to-layer="446" to-port="0" />
		<edge from-layer="436" from-port="0" to-layer="444" to-port="0" />
		<edge from-layer="437" from-port="0" to-layer="438" to-port="1" />
		<edge from-layer="438" from-port="2" to-layer="440" to-port="0" />
		<edge from-layer="439" from-port="0" to-layer="440" to-port="1" />
		<edge from-layer="440" from-port="2" to-layer="442" to-port="0" />
		<edge from-layer="441" from-port="0" to-layer="442" to-port="1" />
		<edge from-layer="442" from-port="2" to-layer="443" to-port="0" />
		<edge from-layer="443" from-port="1" to-layer="444" to-port="1" />
		<edge from-layer="444" from-port="2" to-layer="445" to-port="1" />
		<edge from-layer="445" from-port="2" to-layer="446" to-port="1" />
		<edge from-layer="446" from-port="2" to-layer="450" to-port="0" />
		<edge from-layer="446" from-port="2" to-layer="448" to-port="0" />
		<edge from-layer="446" from-port="2" to-layer="463" to-port="0" />
		<edge from-layer="447" from-port="0" to-layer="448" to-port="1" />
		<edge from-layer="448" from-port="2" to-layer="461" to-port="0" />
		<edge from-layer="449" from-port="0" to-layer="450" to-port="1" />
		<edge from-layer="450" from-port="2" to-layer="452" to-port="0" />
		<edge from-layer="450" from-port="2" to-layer="455" to-port="0" />
		<edge from-layer="451" from-port="0" to-layer="452" to-port="1" />
		<edge from-layer="452" from-port="2" to-layer="454" to-port="0" />
		<edge from-layer="453" from-port="0" to-layer="454" to-port="1" />
		<edge from-layer="454" from-port="2" to-layer="455" to-port="1" />
		<edge from-layer="455" from-port="2" to-layer="457" to-port="0" />
		<edge from-layer="456" from-port="0" to-layer="457" to-port="1" />
		<edge from-layer="457" from-port="2" to-layer="458" to-port="0" />
		<edge from-layer="458" from-port="1" to-layer="460" to-port="0" />
		<edge from-layer="459" from-port="0" to-layer="460" to-port="1" />
		<edge from-layer="460" from-port="2" to-layer="461" to-port="1" />
		<edge from-layer="461" from-port="2" to-layer="464" to-port="0" />
		<edge from-layer="462" from-port="0" to-layer="463" to-port="1" />
		<edge from-layer="463" from-port="2" to-layer="464" to-port="1" />
		<edge from-layer="464" from-port="2" to-layer="466" to-port="0" />
		<edge from-layer="465" from-port="0" to-layer="466" to-port="1" />
		<edge from-layer="466" from-port="2" to-layer="467" to-port="1" />
		<edge from-layer="467" from-port="2" to-layer="514" to-port="0" />
		<edge from-layer="467" from-port="2" to-layer="471" to-port="0" />
		<edge from-layer="467" from-port="2" to-layer="478" to-port="0" />
		<edge from-layer="468" from-port="0" to-layer="479" to-port="0" />
		<edge from-layer="469" from-port="0" to-layer="477" to-port="0" />
		<edge from-layer="470" from-port="0" to-layer="471" to-port="1" />
		<edge from-layer="471" from-port="2" to-layer="473" to-port="0" />
		<edge from-layer="472" from-port="0" to-layer="473" to-port="1" />
		<edge from-layer="473" from-port="2" to-layer="475" to-port="0" />
		<edge from-layer="474" from-port="0" to-layer="475" to-port="1" />
		<edge from-layer="475" from-port="2" to-layer="476" to-port="0" />
		<edge from-layer="476" from-port="1" to-layer="477" to-port="1" />
		<edge from-layer="477" from-port="2" to-layer="478" to-port="1" />
		<edge from-layer="478" from-port="2" to-layer="479" to-port="1" />
		<edge from-layer="479" from-port="2" to-layer="502" to-port="0" />
		<edge from-layer="479" from-port="2" to-layer="494" to-port="0" />
		<edge from-layer="479" from-port="2" to-layer="482" to-port="0" />
		<edge from-layer="479" from-port="2" to-layer="481" to-port="0" />
		<edge from-layer="480" from-port="0" to-layer="481" to-port="1" />
		<edge from-layer="481" from-port="2" to-layer="490" to-port="0" />
		<edge from-layer="482" from-port="1" to-layer="485" to-port="0" />
		<edge from-layer="483" from-port="0" to-layer="485" to-port="1" />
		<edge from-layer="484" from-port="0" to-layer="485" to-port="2" />
		<edge from-layer="485" from-port="3" to-layer="510" to-port="0" />
		<edge from-layer="485" from-port="3" to-layer="489" to-port="0" />
		<edge from-layer="486" from-port="0" to-layer="489" to-port="1" />
		<edge from-layer="486" from-port="0" to-layer="510" to-port="1" />
		<edge from-layer="487" from-port="0" to-layer="489" to-port="2" />
		<edge from-layer="488" from-port="0" to-layer="489" to-port="3" />
		<edge from-layer="489" from-port="4" to-layer="495" to-port="1" />
		<edge from-layer="489" from-port="4" to-layer="490" to-port="1" />
		<edge from-layer="489" from-port="4" to-layer="503" to-port="1" />
		<edge from-layer="490" from-port="2" to-layer="492" to-port="0" />
		<edge from-layer="491" from-port="0" to-layer="492" to-port="1" />
		<edge from-layer="492" from-port="2" to-layer="498" to-port="0" />
		<edge from-layer="493" from-port="0" to-layer="494" to-port="1" />
		<edge from-layer="494" from-port="2" to-layer="495" to-port="0" />
		<edge from-layer="495" from-port="2" to-layer="497" to-port="0" />
		<edge from-layer="496" from-port="0" to-layer="497" to-port="1" />
		<edge from-layer="497" from-port="2" to-layer="498" to-port="1" />
		<edge from-layer="498" from-port="2" to-layer="499" to-port="0" />
		<edge from-layer="499" from-port="2" to-layer="500" to-port="0" />
		<edge from-layer="500" from-port="1" to-layer="506" to-port="0" />
		<edge from-layer="501" from-port="0" to-layer="502" to-port="1" />
		<edge from-layer="502" from-port="2" to-layer="503" to-port="0" />
		<edge from-layer="503" from-port="2" to-layer="505" to-port="0" />
		<edge from-layer="504" from-port="0" to-layer="505" to-port="1" />
		<edge from-layer="505" from-port="2" to-layer="506" to-port="1" />
		<edge from-layer="506" from-port="2" to-layer="508" to-port="0" />
		<edge from-layer="507" from-port="0" to-layer="508" to-port="1" />
		<edge from-layer="508" from-port="2" to-layer="511" to-port="0" />
		<edge from-layer="509" from-port="0" to-layer="510" to-port="2" />
		<edge from-layer="510" from-port="3" to-layer="511" to-port="1" />
		<edge from-layer="511" from-port="2" to-layer="513" to-port="0" />
		<edge from-layer="512" from-port="0" to-layer="513" to-port="1" />
		<edge from-layer="513" from-port="2" to-layer="514" to-port="1" />
		<edge from-layer="514" from-port="2" to-layer="518" to-port="0" />
		<edge from-layer="514" from-port="2" to-layer="547" to-port="0" />
		<edge from-layer="514" from-port="2" to-layer="525" to-port="0" />
		<edge from-layer="515" from-port="0" to-layer="526" to-port="0" />
		<edge from-layer="516" from-port="0" to-layer="524" to-port="0" />
		<edge from-layer="517" from-port="0" to-layer="518" to-port="1" />
		<edge from-layer="518" from-port="2" to-layer="520" to-port="0" />
		<edge from-layer="519" from-port="0" to-layer="520" to-port="1" />
		<edge from-layer="520" from-port="2" to-layer="522" to-port="0" />
		<edge from-layer="521" from-port="0" to-layer="522" to-port="1" />
		<edge from-layer="522" from-port="2" to-layer="523" to-port="0" />
		<edge from-layer="523" from-port="1" to-layer="524" to-port="1" />
		<edge from-layer="524" from-port="2" to-layer="525" to-port="1" />
		<edge from-layer="525" from-port="2" to-layer="526" to-port="1" />
		<edge from-layer="526" from-port="2" to-layer="530" to-port="0" />
		<edge from-layer="526" from-port="2" to-layer="543" to-port="0" />
		<edge from-layer="526" from-port="2" to-layer="528" to-port="0" />
		<edge from-layer="527" from-port="0" to-layer="528" to-port="1" />
		<edge from-layer="528" from-port="2" to-layer="541" to-port="0" />
		<edge from-layer="529" from-port="0" to-layer="530" to-port="1" />
		<edge from-layer="530" from-port="2" to-layer="535" to-port="0" />
		<edge from-layer="530" from-port="2" to-layer="532" to-port="0" />
		<edge from-layer="531" from-port="0" to-layer="532" to-port="1" />
		<edge from-layer="532" from-port="2" to-layer="534" to-port="0" />
		<edge from-layer="533" from-port="0" to-layer="534" to-port="1" />
		<edge from-layer="534" from-port="2" to-layer="535" to-port="1" />
		<edge from-layer="535" from-port="2" to-layer="537" to-port="0" />
		<edge from-layer="536" from-port="0" to-layer="537" to-port="1" />
		<edge from-layer="537" from-port="2" to-layer="538" to-port="0" />
		<edge from-layer="538" from-port="1" to-layer="540" to-port="0" />
		<edge from-layer="539" from-port="0" to-layer="540" to-port="1" />
		<edge from-layer="540" from-port="2" to-layer="541" to-port="1" />
		<edge from-layer="541" from-port="2" to-layer="544" to-port="0" />
		<edge from-layer="542" from-port="0" to-layer="543" to-port="1" />
		<edge from-layer="543" from-port="2" to-layer="544" to-port="1" />
		<edge from-layer="544" from-port="2" to-layer="546" to-port="0" />
		<edge from-layer="545" from-port="0" to-layer="546" to-port="1" />
		<edge from-layer="546" from-port="2" to-layer="547" to-port="1" />
		<edge from-layer="547" from-port="2" to-layer="594" to-port="0" />
		<edge from-layer="547" from-port="2" to-layer="551" to-port="0" />
		<edge from-layer="547" from-port="2" to-layer="558" to-port="0" />
		<edge from-layer="548" from-port="0" to-layer="559" to-port="0" />
		<edge from-layer="549" from-port="0" to-layer="557" to-port="0" />
		<edge from-layer="550" from-port="0" to-layer="551" to-port="1" />
		<edge from-layer="551" from-port="2" to-layer="553" to-port="0" />
		<edge from-layer="552" from-port="0" to-layer="553" to-port="1" />
		<edge from-layer="553" from-port="2" to-layer="555" to-port="0" />
		<edge from-layer="554" from-port="0" to-layer="555" to-port="1" />
		<edge from-layer="555" from-port="2" to-layer="556" to-port="0" />
		<edge from-layer="556" from-port="1" to-layer="557" to-port="1" />
		<edge from-layer="557" from-port="2" to-layer="558" to-port="1" />
		<edge from-layer="558" from-port="2" to-layer="559" to-port="1" />
		<edge from-layer="559" from-port="2" to-layer="561" to-port="0" />
		<edge from-layer="559" from-port="2" to-layer="582" to-port="0" />
		<edge from-layer="559" from-port="2" to-layer="562" to-port="0" />
		<edge from-layer="559" from-port="2" to-layer="574" to-port="0" />
		<edge from-layer="560" from-port="0" to-layer="561" to-port="1" />
		<edge from-layer="561" from-port="2" to-layer="570" to-port="0" />
		<edge from-layer="562" from-port="1" to-layer="565" to-port="0" />
		<edge from-layer="563" from-port="0" to-layer="565" to-port="1" />
		<edge from-layer="564" from-port="0" to-layer="565" to-port="2" />
		<edge from-layer="565" from-port="3" to-layer="590" to-port="0" />
		<edge from-layer="565" from-port="3" to-layer="569" to-port="0" />
		<edge from-layer="566" from-port="0" to-layer="590" to-port="1" />
		<edge from-layer="566" from-port="0" to-layer="569" to-port="1" />
		<edge from-layer="567" from-port="0" to-layer="569" to-port="2" />
		<edge from-layer="568" from-port="0" to-layer="569" to-port="3" />
		<edge from-layer="569" from-port="4" to-layer="575" to-port="1" />
		<edge from-layer="569" from-port="4" to-layer="583" to-port="1" />
		<edge from-layer="569" from-port="4" to-layer="570" to-port="1" />
		<edge from-layer="570" from-port="2" to-layer="572" to-port="0" />
		<edge from-layer="571" from-port="0" to-layer="572" to-port="1" />
		<edge from-layer="572" from-port="2" to-layer="578" to-port="0" />
		<edge from-layer="573" from-port="0" to-layer="574" to-port="1" />
		<edge from-layer="574" from-port="2" to-layer="575" to-port="0" />
		<edge from-layer="575" from-port="2" to-layer="577" to-port="0" />
		<edge from-layer="576" from-port="0" to-layer="577" to-port="1" />
		<edge from-layer="577" from-port="2" to-layer="578" to-port="1" />
		<edge from-layer="578" from-port="2" to-layer="579" to-port="0" />
		<edge from-layer="579" from-port="2" to-layer="580" to-port="0" />
		<edge from-layer="580" from-port="1" to-layer="586" to-port="0" />
		<edge from-layer="581" from-port="0" to-layer="582" to-port="1" />
		<edge from-layer="582" from-port="2" to-layer="583" to-port="0" />
		<edge from-layer="583" from-port="2" to-layer="585" to-port="0" />
		<edge from-layer="584" from-port="0" to-layer="585" to-port="1" />
		<edge from-layer="585" from-port="2" to-layer="586" to-port="1" />
		<edge from-layer="586" from-port="2" to-layer="588" to-port="0" />
		<edge from-layer="587" from-port="0" to-layer="588" to-port="1" />
		<edge from-layer="588" from-port="2" to-layer="591" to-port="0" />
		<edge from-layer="589" from-port="0" to-layer="590" to-port="2" />
		<edge from-layer="590" from-port="3" to-layer="591" to-port="1" />
		<edge from-layer="591" from-port="2" to-layer="593" to-port="0" />
		<edge from-layer="592" from-port="0" to-layer="593" to-port="1" />
		<edge from-layer="593" from-port="2" to-layer="594" to-port="1" />
		<edge from-layer="594" from-port="2" to-layer="605" to-port="0" />
		<edge from-layer="594" from-port="2" to-layer="627" to-port="0" />
		<edge from-layer="594" from-port="2" to-layer="598" to-port="0" />
		<edge from-layer="595" from-port="0" to-layer="606" to-port="0" />
		<edge from-layer="596" from-port="0" to-layer="604" to-port="0" />
		<edge from-layer="597" from-port="0" to-layer="598" to-port="1" />
		<edge from-layer="598" from-port="2" to-layer="600" to-port="0" />
		<edge from-layer="599" from-port="0" to-layer="600" to-port="1" />
		<edge from-layer="600" from-port="2" to-layer="602" to-port="0" />
		<edge from-layer="601" from-port="0" to-layer="602" to-port="1" />
		<edge from-layer="602" from-port="2" to-layer="603" to-port="0" />
		<edge from-layer="603" from-port="1" to-layer="604" to-port="1" />
		<edge from-layer="604" from-port="2" to-layer="605" to-port="1" />
		<edge from-layer="605" from-port="2" to-layer="606" to-port="1" />
		<edge from-layer="606" from-port="2" to-layer="610" to-port="0" />
		<edge from-layer="606" from-port="2" to-layer="623" to-port="0" />
		<edge from-layer="606" from-port="2" to-layer="608" to-port="0" />
		<edge from-layer="607" from-port="0" to-layer="608" to-port="1" />
		<edge from-layer="608" from-port="2" to-layer="621" to-port="0" />
		<edge from-layer="609" from-port="0" to-layer="610" to-port="1" />
		<edge from-layer="610" from-port="2" to-layer="615" to-port="0" />
		<edge from-layer="610" from-port="2" to-layer="612" to-port="0" />
		<edge from-layer="611" from-port="0" to-layer="612" to-port="1" />
		<edge from-layer="612" from-port="2" to-layer="614" to-port="0" />
		<edge from-layer="613" from-port="0" to-layer="614" to-port="1" />
		<edge from-layer="614" from-port="2" to-layer="615" to-port="1" />
		<edge from-layer="615" from-port="2" to-layer="617" to-port="0" />
		<edge from-layer="616" from-port="0" to-layer="617" to-port="1" />
		<edge from-layer="617" from-port="2" to-layer="618" to-port="0" />
		<edge from-layer="618" from-port="1" to-layer="620" to-port="0" />
		<edge from-layer="619" from-port="0" to-layer="620" to-port="1" />
		<edge from-layer="620" from-port="2" to-layer="621" to-port="1" />
		<edge from-layer="621" from-port="2" to-layer="624" to-port="0" />
		<edge from-layer="622" from-port="0" to-layer="623" to-port="1" />
		<edge from-layer="623" from-port="2" to-layer="624" to-port="1" />
		<edge from-layer="624" from-port="2" to-layer="626" to-port="0" />
		<edge from-layer="625" from-port="0" to-layer="626" to-port="1" />
		<edge from-layer="626" from-port="2" to-layer="627" to-port="1" />
		<edge from-layer="627" from-port="2" to-layer="631" to-port="0" />
		<edge from-layer="627" from-port="2" to-layer="674" to-port="0" />
		<edge from-layer="627" from-port="2" to-layer="638" to-port="0" />
		<edge from-layer="628" from-port="0" to-layer="639" to-port="0" />
		<edge from-layer="629" from-port="0" to-layer="637" to-port="0" />
		<edge from-layer="630" from-port="0" to-layer="631" to-port="1" />
		<edge from-layer="631" from-port="2" to-layer="633" to-port="0" />
		<edge from-layer="632" from-port="0" to-layer="633" to-port="1" />
		<edge from-layer="633" from-port="2" to-layer="635" to-port="0" />
		<edge from-layer="634" from-port="0" to-layer="635" to-port="1" />
		<edge from-layer="635" from-port="2" to-layer="636" to-port="0" />
		<edge from-layer="636" from-port="1" to-layer="637" to-port="1" />
		<edge from-layer="637" from-port="2" to-layer="638" to-port="1" />
		<edge from-layer="638" from-port="2" to-layer="639" to-port="1" />
		<edge from-layer="639" from-port="2" to-layer="654" to-port="0" />
		<edge from-layer="639" from-port="2" to-layer="662" to-port="0" />
		<edge from-layer="639" from-port="2" to-layer="642" to-port="0" />
		<edge from-layer="639" from-port="2" to-layer="641" to-port="0" />
		<edge from-layer="640" from-port="0" to-layer="641" to-port="1" />
		<edge from-layer="641" from-port="2" to-layer="650" to-port="0" />
		<edge from-layer="642" from-port="1" to-layer="645" to-port="0" />
		<edge from-layer="643" from-port="0" to-layer="645" to-port="1" />
		<edge from-layer="644" from-port="0" to-layer="645" to-port="2" />
		<edge from-layer="645" from-port="3" to-layer="670" to-port="0" />
		<edge from-layer="645" from-port="3" to-layer="649" to-port="0" />
		<edge from-layer="646" from-port="0" to-layer="649" to-port="1" />
		<edge from-layer="646" from-port="0" to-layer="670" to-port="1" />
		<edge from-layer="647" from-port="0" to-layer="649" to-port="2" />
		<edge from-layer="648" from-port="0" to-layer="649" to-port="3" />
		<edge from-layer="649" from-port="4" to-layer="655" to-port="1" />
		<edge from-layer="649" from-port="4" to-layer="650" to-port="1" />
		<edge from-layer="649" from-port="4" to-layer="663" to-port="1" />
		<edge from-layer="650" from-port="2" to-layer="652" to-port="0" />
		<edge from-layer="651" from-port="0" to-layer="652" to-port="1" />
		<edge from-layer="652" from-port="2" to-layer="658" to-port="0" />
		<edge from-layer="653" from-port="0" to-layer="654" to-port="1" />
		<edge from-layer="654" from-port="2" to-layer="655" to-port="0" />
		<edge from-layer="655" from-port="2" to-layer="657" to-port="0" />
		<edge from-layer="656" from-port="0" to-layer="657" to-port="1" />
		<edge from-layer="657" from-port="2" to-layer="658" to-port="1" />
		<edge from-layer="658" from-port="2" to-layer="659" to-port="0" />
		<edge from-layer="659" from-port="2" to-layer="660" to-port="0" />
		<edge from-layer="660" from-port="1" to-layer="666" to-port="0" />
		<edge from-layer="661" from-port="0" to-layer="662" to-port="1" />
		<edge from-layer="662" from-port="2" to-layer="663" to-port="0" />
		<edge from-layer="663" from-port="2" to-layer="665" to-port="0" />
		<edge from-layer="664" from-port="0" to-layer="665" to-port="1" />
		<edge from-layer="665" from-port="2" to-layer="666" to-port="1" />
		<edge from-layer="666" from-port="2" to-layer="668" to-port="0" />
		<edge from-layer="667" from-port="0" to-layer="668" to-port="1" />
		<edge from-layer="668" from-port="2" to-layer="671" to-port="0" />
		<edge from-layer="669" from-port="0" to-layer="670" to-port="2" />
		<edge from-layer="670" from-port="3" to-layer="671" to-port="1" />
		<edge from-layer="671" from-port="2" to-layer="673" to-port="0" />
		<edge from-layer="672" from-port="0" to-layer="673" to-port="1" />
		<edge from-layer="673" from-port="2" to-layer="674" to-port="1" />
		<edge from-layer="674" from-port="2" to-layer="678" to-port="0" />
		<edge from-layer="674" from-port="2" to-layer="707" to-port="0" />
		<edge from-layer="674" from-port="2" to-layer="685" to-port="0" />
		<edge from-layer="675" from-port="0" to-layer="686" to-port="0" />
		<edge from-layer="676" from-port="0" to-layer="684" to-port="0" />
		<edge from-layer="677" from-port="0" to-layer="678" to-port="1" />
		<edge from-layer="678" from-port="2" to-layer="680" to-port="0" />
		<edge from-layer="679" from-port="0" to-layer="680" to-port="1" />
		<edge from-layer="680" from-port="2" to-layer="682" to-port="0" />
		<edge from-layer="681" from-port="0" to-layer="682" to-port="1" />
		<edge from-layer="682" from-port="2" to-layer="683" to-port="0" />
		<edge from-layer="683" from-port="1" to-layer="684" to-port="1" />
		<edge from-layer="684" from-port="2" to-layer="685" to-port="1" />
		<edge from-layer="685" from-port="2" to-layer="686" to-port="1" />
		<edge from-layer="686" from-port="2" to-layer="690" to-port="0" />
		<edge from-layer="686" from-port="2" to-layer="688" to-port="0" />
		<edge from-layer="686" from-port="2" to-layer="703" to-port="0" />
		<edge from-layer="687" from-port="0" to-layer="688" to-port="1" />
		<edge from-layer="688" from-port="2" to-layer="701" to-port="0" />
		<edge from-layer="689" from-port="0" to-layer="690" to-port="1" />
		<edge from-layer="690" from-port="2" to-layer="692" to-port="0" />
		<edge from-layer="690" from-port="2" to-layer="695" to-port="0" />
		<edge from-layer="691" from-port="0" to-layer="692" to-port="1" />
		<edge from-layer="692" from-port="2" to-layer="694" to-port="0" />
		<edge from-layer="693" from-port="0" to-layer="694" to-port="1" />
		<edge from-layer="694" from-port="2" to-layer="695" to-port="1" />
		<edge from-layer="695" from-port="2" to-layer="697" to-port="0" />
		<edge from-layer="696" from-port="0" to-layer="697" to-port="1" />
		<edge from-layer="697" from-port="2" to-layer="698" to-port="0" />
		<edge from-layer="698" from-port="1" to-layer="700" to-port="0" />
		<edge from-layer="699" from-port="0" to-layer="700" to-port="1" />
		<edge from-layer="700" from-port="2" to-layer="701" to-port="1" />
		<edge from-layer="701" from-port="2" to-layer="704" to-port="0" />
		<edge from-layer="702" from-port="0" to-layer="703" to-port="1" />
		<edge from-layer="703" from-port="2" to-layer="704" to-port="1" />
		<edge from-layer="704" from-port="2" to-layer="706" to-port="0" />
		<edge from-layer="705" from-port="0" to-layer="706" to-port="1" />
		<edge from-layer="706" from-port="2" to-layer="707" to-port="1" />
		<edge from-layer="707" from-port="2" to-layer="710" to-port="0" />
		<edge from-layer="707" from-port="2" to-layer="717" to-port="0" />
		<edge from-layer="708" from-port="0" to-layer="716" to-port="0" />
		<edge from-layer="709" from-port="0" to-layer="710" to-port="1" />
		<edge from-layer="710" from-port="2" to-layer="712" to-port="0" />
		<edge from-layer="711" from-port="0" to-layer="712" to-port="1" />
		<edge from-layer="712" from-port="2" to-layer="714" to-port="0" />
		<edge from-layer="713" from-port="0" to-layer="714" to-port="1" />
		<edge from-layer="714" from-port="2" to-layer="715" to-port="0" />
		<edge from-layer="715" from-port="1" to-layer="716" to-port="1" />
		<edge from-layer="716" from-port="2" to-layer="717" to-port="1" />
		<edge from-layer="717" from-port="2" to-layer="718" to-port="1" />
		<edge from-layer="718" from-port="2" to-layer="719" to-port="0" />
	</edges>
	<rt_info>
		<Runtime_version value="2024.1.0-15008-f4afc983258-releases/2024/1" />
		<conversion_parameters>
			<framework value="pytorch" />
			<is_python_object value="True" />
		</conversion_parameters>
		<optimum>
			<optimum_intel_version value="1.17.2" />
			<optimum_version value="1.20.0" />
			<pytorch_version value="2.3.1" />
			<transformers_version value="4.41.2" />
		</optimum>
	</rt_info>
</net>
